digit_model.pth (torch, 440581 bytes, 6 tensors)

fc1.weight f4 [128, 784]
00000000: e06f 11bc 34a9 413c 9060 c93b 272c 083d
00000010: 0034 b23a c061 52bc 2333 12bd 789d f3bb
00000020: d475 513c b454 313c 8cad cabc c8d5 be3c
00000030: 940d f7bc 51a6 64bc f2f9 ba3c 272c ddbb
00000040: 0627 e53c 355f 043d b075 223b c092 94ba
00000050: 4285 ed3c 7cc3 653c ee00 f23c e61d d93c
00000060: 1cbb c13c 40d9 bbbc 58a8 853b 401d 25ba
00000070: 5eb1 debc 7c5c 683c 0a0e 0bbc a438 06bc
00000080: 47bb 1abd 46cf 26bd a9fc b9bc 55f1 273d
00000090: 7c34 5d3d 4932 003d 89d3 1fbd c273 04bd
000000a0: 8fb7 0d3b 6a6b 25bd f157 6d3d 2678 8b3d
000000b0: 2171 52bc 341c 88bd 25b4 81bd 9b05 cf3c
000000c0: 465a 6c3d c2d1 483c 2efd 35bc c7e7 a03c
000000d0: e219 f93c 6040 cfbc 0ab5 f3bc 257c 0f3d
000000e0: 8da9 09bd 909b 3b3c baba ac3b ce83 38bc
000000f0: 0415 96bd 3a29 9d3c 756f 96bb df4b 4e3d
00000100: 5af6 123d 939b b43d a9d2 c03d 5fdd 823d
00000110: 8a9e 133e dec7 f13d a3c7 053e 22f7 3d3e
00000120: dda0 2d3d e176 393c 2b05 11bd ef44 1b3d
00000130: 844c d63d 0788 053e b2b4 1a3e f293 033e
00000140: 596c 033e a18c 7d3d 1c37 60bc a512 cdbc
00000150: 84ca 1b3c 00c2 67bb c390 513d b3f6 7f3c
00000160: d2bd 58bb e973 95bc 9e63 74bc ef9a 30bd
00000170: e357 abbc 1fd6 8d3d e1b4 b0ba 59c1 8dbd
00000180: 40a3 79bc e438 263d fff0 f5bb cae7 1abd
00000190: 45ed babc f434 25bd d269 10bc 7522 00bd
000001a0: 1d01 0dbe 7fe6 b63b ed4d 193e 5d26 013e
000001b0: e263 af3d 9d6e fcbc efea 5cbc caf6 2dbc
000001c0: ec6f 88bc 74b9 18bd a308 353d 7873 2cbd
000001d0: 19a1 d43a 60c0 67bc e4e9 5abd 231b acbd
000001e0: 8896 92bd f031 043b f6f8 f13b 915a c83c
000001f0: 89b3 273d aaf4 003d 9de7 673d 59b7 963d
00000200: 0ab6 8e3d 7941 8b3d e781 093d 584e b93d
00000210: fcaa 0b3e 3f5c bb3d 8775 c63d 4592 a83d
00000220: b974 36bd 3b07 4dbd 6521 b03c 1be6 283c
00000230: 0893 423c aa5c 07bc d384 263d b095 c3bc
00000240: be9a 61bc cb5b 7cbd 3bab afbd 0168 b3bd
00000250: 2711 fbbd a036 b4bd 5de0 8bbd d2b9 b1bc
00000260: fc6f e73c 1532 933c 1999 d73c ec2b 993d
00000270: f394 be3c 9880 883d 0f32 153d 1754 b93d
00000280: a83a e93d 2959 d93d 9ce0 af3d 7001 973d
00000290: b3a5 903d 9908 863d 2346 c23c 294b 4f3d
000002a0: c0ca 2fbc af02 a6bc 9e8e 30bc 3212 5ebd
000002b0: 7ee9 87bd 32fd 16be 2c48 e8bd fc92 fbbd
000002c0: f719 1abe 0205 c1bd 8241 bdbd e22c 82bd
000002d0: da37 49bc 8dae 3fbd 055d 64bd 2af9 11bc
000002e0: 696d e3bb a45a cf3c b1ee 8d3c 05d1 4ebc
000002f0: d619 243d 4836 e53c dca5 813c 53b2 ba3d
00000300: 377f 813c afab b73d a3d2 f93c 8368 913d
00000310: 5b13 bf3c ea9d 02be 4fff 81bd 35fc ccbd
00000320: e9ab 03be 2305 0bbe 52c3 0abe 6949 9bbd
00000330: 62e7 bebd 32c5 a8bd 3285 4fbd 87e3 7bbd
00000340: 185d c9bd 2c9e 36bc c660 9e3b c1f1 c53c
00000350: cefd 9a38 9f74 3abd 18b0 0fbc 7ced 32bd
00000360: 32ea 07bb c7ff 203d 871c 793d 0a7f 223c
00000370: 1413 813c 6075 ad3c b462 bc3d 8daa 443d
00000380: 6ab2 0f3c b52e 99bd 56d3 76bc 99de 0bbd
00000390: 8c9c 6cbd 87d4 07be 229c 35bd b897 cebd
000003a0: c828 10bd 7a7a afbd b942 02bd 47d9 c1bd
000003b0: d665 5dbd dd5f dc3b 4695 3cbb b398 3ebc
000003c0: 6388 82bd dbd8 cebb 5431 e2bc 9f08 233c
000003d0: 70c3 8fbd bad0 3dbd b5f2 43bd aeec 513d
000003e0: 7100 42bd f193 7ebd c38a fa3d 5749 743d
000003f0: 33ca d93b 685a d0bd 14f3 45bd 39ef aabc
-0.008876771 0.011820126 0.0061455444 0.033245232 0.001359582 -0.012840688 -0.0356933 -0.007434543
0.01278444 0.010823417 -0.024740957 0.023295298 -0.030157842 -0.013955669 0.022824261 -0.006749648
0.02797271 0.03231736 0.0024789385 -0.0011335239 0.028994206 0.014023658 0.029541459 0.026503514
0.023648791 -0.022930741 0.004078906 -0.0006298609 -0.027184185 0.014182206 -0.008487234 -0.008192215
-0.037776258 -0.040725015 -0.022703486 0.041001637 0.05400513 0.031297956 -0.039020095 -0.032336958
0.0021624302 -0.04038564 0.057945196 0.06810026 -0.012844355 -0.06646004 -0.06333188 0.025271228
0.05770328 0.012257041 -0.011107726 0.01964177 0.03040785 -0.025299251 -0.029749412 0.035030503
-0.03360896 0.011450663 0.005271283 -0.011261893 -0.07328227 0.019184697 -0.0045909234 0.050365325
0.03587947 0.08818736 0.0941518 0.063898794 0.14415947 0.118057 0.13064437 0.18551305
0.04238974 0.011319847 -0.03540532 0.037907537 0.10463813 0.13040172 0.15107992 0.12849405
0.128343 0.061901692 -0.013685014 -0.025033304 0.009508733 -0.0035363436 0.051163446 0.0156227825
-0.0033072126 -0.018243747 -0.014916329 -0.043116506 -0.020915931 0.06925606 -0.001348164 -0.06921644
-0.015236676 0.0405816 -0.0075055356 -0.037818708 -0.022818217 -0.040333703 -0.008814292 -0.03128286
-0.13769956 0.0055816765 0.14971133 0.1261229 0.08563973 -0.030814463 -0.013483747 -0.010617921
-0.016654931 -0.037286237 0.04419769 -0.042102307 0.0016222327 -0.014144987 -0.05344571 -0.084036134
-0.07157618 0.0020171367 0.007384415 0.024457248 0.040942702 0.03148333 0.056617368 0.073591895
0.06968315 0.06799597 0.03357115 0.09048146 0.13639444 0.09148454 0.09690385 0.08231024
-0.04454491 -0.050055724 0.021500299 0.010308768 0.011875875 -0.008261839 0.040654015 -0.023875087
-0.013769804 -0.061610978 -0.085775815 -0.087600715 -0.12259131 -0.087994814 -0.06829903 -0.021695051
0.02825164 0.017968217 0.02631812 0.074790806 0.023264384 0.06665152 0.036424693 0.09049242
0.11388141 0.10612709 0.08587763 0.07373321 0.070628546 0.065446086 0.023715084 0.050608788
-0.010729492 -0.020264952 -0.01077619 -0.05421657 -0.06636332 -0.14745024 -0.11341891 -0.122838944
-0.15048967 -0.09424783 -0.0924101 -0.06356217 -0.012281382 -0.046797324 -0.055752773 -0.008909503
-0.006940533 0.025311776 0.017325731 -0.012623076 0.0400637 0.027979985 0.015826158 0.09116044
0.015807731 0.08968293 0.030495947 0.07100012 0.02332466 -0.12755552 -0.063475244 -0.10009042
-0.12858547 -0.13576178 -0.13551071 -0.07582361 -0.093214765 -0.08240737 -0.050664134 -0.061496284
-0.09832209 -0.01114611 0.0048333136 0.024163129 7.390567e-05 -0.045521375 -0.008770011 -0.043683514
-0.0020738957 0.03930643 0.06081822 0.009917984 0.015756167 0.021174133 0.091985136 0.048014212
0.008770565 -0.07479612 -0.015065035 -0.034147833 -0.057766482 -0.13264666 -0.044338353 -0.10087532
-0.035195142 -0.085682824 -0.031801913 -0.094652705 -0.054052196 0.006725295 -0.0028775497 -0.011633086
-0.0637367 -0.0063124723 -0.027611412 0.009950786 -0.070196986 -0.046341635 -0.047838885 0.051251106
-0.047363702 -0.062152807 0.12233498 0.059640255 0.0066464185 -0.101734936 -0.04832752 -0.020866023

fc1.bias f4 [128]
00000000: f688 d43a e200 4d3d 9ede 0b3e 0d0d db3d
00000010: 04a3 dbbd 0697 183e a100 e9bc 9e31 4a39
00000020: 485b 7639 7ad2 94bc 0d2e 2c3c 32c7 403d
00000030: cdf8 b13b 58b6 5b3d c9af 0ebb cfce 843d
00000040: 1deb 793d d951 cc3c 6f32 23bd 179f af3d
00000050: 646c 4bbc 299b 643d 2d61 f13d 8e44 bb3d
00000060: 7624 cebc fdea f13d b25a 723d 57fd cc3d
00000070: 886c e6ba 1b7a 5f3d a5f5 3a3d dced 49bc
00000080: a2d9 6b3d 5cb0 b1bc b913 be3c 1963 723d
00000090: f096 703d b12a ae3c 7427 88bd 28f9 963d
000000a0: 0fee e93d 24b0 d93c d736 bb3d c721 c23d
000000b0: 19c5 81bd 83c6 c73d 37a3 3d3d 5473 c7bc
000000c0: 5a6e 00bd 9b10 473d 057f 133e 57b5 db3d
000000d0: 0242 973c 1155 1e3e a0dd a83d 5fd4 90bd
000000e0: 1335 0cba eaae 4b3d f002 83bd 8e78 9d3c
000000f0: 2f62 58b9 0677 6dbb eff9 c03d 5cca 6fbc
00000100: 312f 283e e25f 30bd 3600 dabd 4e73 583d
00000110: dee8 463d 6a15 393d 3454 0abe 5846 9c3d
00000120: 1e78 443b f162 fb3c 03a6 423d 40e9 343d
00000130: 7bce f4bc 7c0f 973d 665c 1c3e 22f8 073d
00000140: 6d26 313d e2b3 1a3d 95ce 1c3d 4894 b1bc
00000150: 8f90 fcbd f131 e53c 0b1b 563d 2963 eeba
00000160: 4496 a83c 99f4 3bbd 628a cfb9 4ff8 6a3d
00000170: 5b8a e2bb efda 0f3d d0d1 a63d 0b82 4b3d
00000180: 3968 40bd c72e a6bd b6be 9e3d fea3 423d
00000190: 8bd0 be3d ddcb 19bb 2be9 8e3d 41b3 24bc
000001a0: 0fb0 853d 97a7 a63d c6a6 823d 3c52 69bc
000001b0: a65e 1ebd 075b 033d 7c8e 903c 1039 063d
000001c0: 9b64 c43d 03b1 a5bd 3122 753d 06a2 9ebd
000001d0: 7bdf 453d 463f debb 4cb0 7bbd 53c7 843b
000001e0: bb42 093d f4da 113d a9c1 103d 53ac 943d
000001f0: 9bcd 073d 3448 aa3d c2a0 39bc a43c cc3d
0.0016215134 0.05004967 0.1365914 0.106958486 -0.10724452 0.14901361 -0.028442683 0.00019282705
0.00023494393 -0.01816677 0.010509026 0.047064967 0.0054312707 0.053640693 -0.0021772257 0.06484758
0.061015237 0.024941372 -0.03984302 0.08575266 -0.012415979 0.055812035 0.11786113 0.09143935
-0.02516387 0.118123986 0.059168525 0.10009258 -0.0017579952 0.05455981 0.04564442 -0.0123247765
0.057580598 -0.02169054 0.023202764 0.05917654 0.058737695 0.021260591 -0.0664815 0.073717415
0.11422359 0.026573248 0.09141319 0.09479099 -0.063364215 0.0975466 0.046298232 -0.024346985
-0.03135524 0.04859982 0.14403923 0.10727947 0.018464092 0.15462138 0.082453966 -0.070717566
-0.0005348485 0.049727358 -0.06397045 0.019222524 -0.00020635941 -0.0036234274 0.09422671 -0.014635649
0.16424252 -0.04306019 -0.106445715 0.052844338 0.048561923 0.045186438 -0.13508683 0.076306045
0.0029978822 0.030686827 0.047521602 0.044167757 -0.029883614 0.07376 0.15269622 0.033195622
0.043249536 0.037769206 0.03828295 -0.021677151 -0.1233226 0.027977915 0.052271884 -0.0018187511
0.020579465 -0.045887563 -0.0003958522 0.05736571 -0.006913466 0.0351209 0.08145487 0.049684566
-0.046974394 -0.08114391 0.07751219 0.047519676 0.0931712 -0.002346746 0.06978067 -0.010052503
0.06527721 0.08137434 0.06379466 -0.014240798 -0.038664483 0.032069232 0.017646067 0.032769263
0.095895015 -0.08090403 0.05984706 -0.07745747 0.04830883 -0.006782445 -0.061447427 0.0040520816
0.033510905 0.0356092 0.03534094 0.07259431 0.033155065 0.08314553 -0.011329832 0.09972504

fc2.weight f4 [64, 128]
00000000: 1e4d 2cbe 687c d3bd 990d 683e e373 2d3e
00000010: a389 45bd c3b7 62be 1ec4 213e 5384 4dbd
00000020: c026 253d f967 d73d d043 913b 2bf1 4abd
00000030: ba20 463d 2370 b3bb ff84 7f3d fbb4 25bd
00000040: e96e aaba e06e 8b3d ba24 d7bb 3974 91bd
00000050: 4f88 2abe 7275 623d e73f 8cbb 2301 13bd
00000060: 9409 263e cae2 fe3d 1ca5 723d 2b23 b53e
00000070: f07a 61bd edb4 67bd 4c91 f8bc d2ca 88bd
00000080: 8e47 3bbe 1f35 b13d 85f5 ecbd 7690 4a3d
00000090: b2d3 f43c 93a1 853d d46e 2e3e a611 71be
000000a0: c835 393e d5a8 093c 164a 073c 7157 223d
000000b0: 51d4 d43d 92b0 3c3d 8831 3ebe 659c 443c
000000c0: 5d12 9bbd 9a85 9b3d ce15 bc3c 38bc fc3d
000000d0: 753a a8bd da59 ce3e f2bb 163e 588f 133c
000000e0: b758 f03d 2707 0c3c 8627 5b3d 7397 eb3d
000000f0: 6b4e ecbc d4cc 293e 51db 60bd 0a25 73bd
00000100: d8cc a53e 76e0 65bd 54f8 c53d b71c fe3d
00000110: 993a 14be 1f2b 193d 59ee aabd c478 ccbd
00000120: 8686 e43d 691c c23c e7f2 c13d 5bde adbd
00000130: d1bf d93d 02b5 f6bd d6e9 14be 63f5 a83d
00000140: be83 ee3d 7f78 1a3e dc5d e0bc 907b bc3d
00000150: d0e6 b23c 4a92 0d3e 314a 613e a9b2 9fbd
00000160: 6133 cd3d ca0a f03d c5ab 07be fdb6 d33d
00000170: 3d74 26bd 5987 5dbd 0ad1 c9bc cb58 88bc
00000180: ee4c 413e 7fe8 003d 74d1 c3bd fb92 2d3c
00000190: 7a63 5d3d 791a 553e 44db c5bd 4040 e73d
000001a0: bfb6 513d 0c26 2dbd 168d 29be a624 993c
000001b0: a7cb 1ebe cc57 cd3d 86a7 f23d 4390 383d
000001c0: 09a0 893d fd2d 8439 5a35 e83b 1acd c0bd
000001d0: a548 eb3d a7f3 1d3e 4f03 00bc 50c6 833d
000001e0: 3c4d 583c f778 3a3e 490e 6dbd 43a0 a33d
000001f0: 8e51 763d 0dbb 603e 16f1 45bd 55ee ac3e
00000200: b36f 74bc b6ad 14bb a0ab 6fbd 705e 2d3c
00000210: ec01 8b3c 3cd7 903c 7ec9 65bd 13b2 10be
00000220: f678 623e e236 fb3b c3ec b03c a49e 08be
00000230: a14e 6bbe 1365 ec3c c960 673e 0653 1abd
00000240: 35d3 10bd 6a16 1ebd 1572 c2bb 0559 113e
00000250: 1073 43ba 5997 023d fa23 573e fdbf a93d
00000260: 7a4d 01bf 2185 e73d ac15 df3d 8acf eb3d
00000270: 6eb5 abbd 885e 60bc f46d bb3d 81ab a3bd
00000280: 4022 113d f929 aabd 880b 113e df23 023e
00000290: 40e2 aa3d 02b4 fdbc a29f febd 97fc 74bd
000002a0: 22b1 8a3c fa55 f23c dd22 923e aa7e 133e
000002b0: 9d2d 82bd 7691 073e e122 1ebd 45f4 3cbd
000002c0: 750e 863c 893e e8bd a058 a63d 9612 7b3d
000002d0: 4b04 5bbd 582a 333e a440 d53d 45bd bfbd
000002e0: 0df7 aa3d 82a9 cc3c fd6e 50bb 8939 953c
000002f0: 7df4 00be 5d41 a0bd 8f0d 553e 4c9c e93c
00000300: 26c8 5a3e 389f 00bb eaab 90be 12b2 67be
00000310: 0a2c d73b 9be4 783d aedf f3bd 4f11 933d
00000320: 32a6 e63c d349 693d d5f7 38bd ff31 b53b
00000330: c028 06be de2c 033e e314 cfbc 7b52 39bd
00000340: dc42 293d bd8c a3bd dd36 35bd f16e 05be
00000350: 28bd 93bd 09d6 3ebd 9ca0 83bd 598e f13b
00000360: c669 98bd f8ec 64bd 5710 f33d b695 d93d
00000370: d77f 623d 6b4a 283d b273 f43d 8922 92bb
00000380: 92f3 3d3c 4e51 e2bd 6fec 433d 3d3b 2c3e
00000390: 601c 413c 9add 21be 6409 253d 742b 4bbd
000003a0: 99f3 fa3d 602c 01be dd93 353e 6607 8fbd
000003b0: e5e7 78bd 1340 0a3d fa40 93bc dc29 813d
000003c0: 0d41 2ebd e907 06be 2494 e2bc 04b2 1ebc
000003d0: 09c5 a5be aad7 8b3c 07ed 6abe 7d75 aabb
000003e0: 9a71 1d3e 9fa2 d0bb 916b cdbd 39f2 39be
000003f0: d7e3 72bd f196 ca3e 02af cebd cbbc b33e
-0.16826293 -0.10326463 0.22661437 0.16938739 -0.048226964 -0.22140412 0.15797469 -0.050175022
0.040320158 0.10517878 0.0044331327 -0.049546402 0.048371054 -0.005476014 0.062382694 -0.0404558
-0.0013003025 0.06808257 -0.0065656574 -0.07102246 -0.1665356 0.055287786 -0.0042800787 -0.035889756
0.16214591 0.124456 0.05923949 0.35378394 -0.055048883 -0.05656903 -0.03034272 -0.0667931
-0.18289015 0.0865271 -0.11570267 0.049454175 0.0298861 0.065249585 0.17034465 -0.23541889
0.18086922 0.008402069 0.00825741 0.039634172 0.10392059 0.046066828 -0.18573582 0.012000178
-0.07571862 0.07593842 0.022959616 0.123405874 -0.08214275 0.40302926 0.14720133 0.009006344
0.11735671 0.008546627 0.05350449 0.11503496 -0.028845986 0.16582042 -0.054896656 -0.059361495
0.32382846 -0.056122266 0.096665055 0.12407821 -0.14475478 0.03739464 -0.083462425 -0.09983972
0.11158471 0.023695188 0.09470158 -0.084896766 0.10632289 -0.12046243 -0.14542326 0.08249929
0.116462216 0.15085028 -0.027388506 0.09203255 0.021838576 0.13825336 0.22000958 -0.077977486
0.100195654 0.11720808 -0.13249119 0.103376366 -0.040638197 -0.054084156 -0.02463581 -0.016643902
0.18877003 0.031471726 -0.095614344 0.010594125 0.054049946 0.2081088 -0.09660962 0.112915516
0.05119967 -0.042272612 -0.16557726 0.018694233 -0.15507375 0.100265115 0.11848359 0.045059454
0.067199774 0.00025211266 0.007086438 -0.0941412 0.11488465 0.15424977 -0.007813289 0.064343095
0.013202008 0.18210207 -0.05787495 0.07989552 0.06013637 0.21946354 -0.04832562 0.33775583
-0.014919209 -0.0022686548 -0.058513284 0.010581598 0.01696869 0.017680757 -0.05610036 -0.1413043
0.22116455 0.0076664547 0.021597272 -0.13341767 -0.22979213 0.02885679 0.22595514 -0.037676834
-0.035357673 -0.038595594 -0.00593401 0.14194115 -0.00074558053 0.031882618 0.21009818 0.08288572
-0.50508845 0.11304689 0.108928055 0.11514194 -0.08384214 -0.013694413 0.09151831 -0.07991696
0.035433054 -0.08308787 0.14164555 0.12708996 0.08343935 -0.030969623 -0.12432791 -0.0598112
0.016930167 0.029582012 0.28542224 0.14403787 -0.06356356 0.13239083 -0.038607482 -0.04613139
0.016364316 -0.11340053 0.081223726 0.06129702 -0.05347089 0.17496622 0.1041272 -0.09362272
0.083479024 0.024983171 -0.0031804435 0.018215911 -0.12593265 -0.07824967 0.20805953 0.028516911
0.21365413 -0.0019626152 -0.2825616 -0.22626522 0.006566529 0.06076489 -0.11907898 0.07181036
0.02815542 0.05695517 -0.045158226 0.0055296416 -0.13101482 0.12810084 -0.025278514 -0.045244675
0.041323528 -0.07985828 -0.044241775 -0.13030602 -0.07213813 -0.04659084 -0.06427118 0.0073717055
-0.0744205 -0.055890054 0.11868351 0.10624258 0.0552977 0.041086596 0.1193613 -0.0044596833
0.011593716 -0.11050664 0.047832903 0.16819473 0.01178655 -0.1580719 0.04029216 -0.049601987
0.12253494 -0.12614584 0.17732187 -0.06983833 -0.060768027 0.033752512 -0.01797532 0.06306812
-0.042542506 -0.13088955 -0.02765853 -0.009685997 -0.32376888 0.01707061 -0.22941981 -0.005201994
0.15375367 -0.006367042 -0.10030282 -0.18158807 -0.059299316 0.39568284 -0.10091974 0.35104975

fc2.bias f4 [64]
00000000: 197b 713d 4d29 833d 4c8d 07bb 0b64 ef3c
00000010: da81 e63d f149 3a3d d00c 0a3c 18cb 1d3e
00000020: 35b2 923d ca23 5e3d 7cd0 813c cef0 4f3d
00000030: ef38 643d 3b19 9ebd 09a6 b1bd aca5 ccbd
00000040: 3b7c 10bc a26e 193d 39f1 cbbc 30e6 fb3d
00000050: f2da eb3d 13fc 203d ea79 25bd 4223 cd3d
00000060: 4a50 0a3e d27f c63d d7d2 5ebc 3f31 b63d
00000070: 01a0 b93d 5d02 e63c 6fbe 193d ea11 023e
00000080: ce18 8bbd c26f 06bc e597 183e c43e 0a3e
00000090: b692 e9bc a08d 7d3d 15ce 853c ea7c 963d
000000a0: 2971 063e 1cef 273d 3f6f b93d c279 493d
000000b0: 4102 423e b09c 1e3e 00ec 0e3e 9e31 9bbc
000000c0: 1271 dc3d 07ee 7f3d 53e0 163e f469 003d
000000d0: 14a0 a53d ee79 5ebd 89f8 48bd 94e5 4d3c
000000e0: a742 2fbd 5efc 89bd 5b45 063e 5550 7c3d
000000f0: e667 cbbb 0d8e b73c 97ea bbbd 5150 d73d
0.058955286 0.06404362 -0.0020683585 0.029222509 0.11255236 0.045480672 0.008425906 0.15409505
0.071628965 0.05423335 0.015846483 0.05076676 0.05571836 -0.07719656 -0.08674247 -0.09992537
-0.008818681 0.037459023 -0.024895297 0.12299764 0.1151637 0.039302897 -0.04039947 0.100164905
0.1350719 0.096923485 -0.013600073 0.08896112 0.090637214 0.028077299 0.037535127 0.12702146
-0.067918405 -0.008205356 0.14901693 0.13500506 -0.02851234 0.061902642 0.01633362 0.07348044
0.13129105 0.040999517 0.09054422 0.049188383 0.18946172 0.15489459 0.13957214 -0.018944558
0.10763754 0.06248286 0.1473401 0.031351045 0.08087173 -0.0543155 -0.049065147 0.012566943
-0.042788174 -0.06737588 0.13112395 0.061600048 -0.006207454 0.022406602 -0.09175604 0.10513366

fc3.weight f4 [10, 64]
00000000: fa7b fd3d 1d36 86be 097e d6bc 787a 9fbe
00000010: 1743 4f3e af24 e5bd 1b4f 4fbd 37b5 e7bd
00000020: 6ca3 8f3d 995a cf3d 06eb a63a 4799 00be
00000030: 7e3a 50b9 36f3 a1bc 2af8 f13d f196 083d
00000040: c52a 4c3e 9901 553d 4196 c53d a275 aabd
00000050: 1a1d 31be d9d8 9cbe dd65 d23d bfe2 c03c
00000060: f252 43be ffe3 5fbe f9e9 023e 3909 91be
00000070: d3f0 b8bd 421d e3bd dae1 483c 45af b2be
00000080: 5797 33bd 1a31 36be 4a47 6dbe 1303 25be
00000090: 7fd0 683e b0d1 bb3d ae92 0e3c a343 953d
000000a0: 40b9 74bc 0a7d 883e 0ff6 db3d a657 3a3e
000000b0: af4c c5bd d0eb 373d 5876 79be af31 68bd
000000c0: 66c7 b33d ca16 d8bd 3732 b8be 92a9 4b3e
000000d0: ce5c cbbc faca f13d 7f66 8f3e ffc1 d23d
000000e0: 9cf3 1abc 237f 32bd 725a 17be c7a3 e53d
000000f0: 272b 26be 5e7b cd3d 0bc8 5d3e bff7 c7bc
00000100: 99c1 ea3d 90ce fdbd 041e 1abe cb23 c8bd
00000110: c74d 34be ce12 583e 729d ff3d d22a 4a3e
00000120: acac aabd 2751 aa3c 1284 6dbc c09d 9bbe
00000130: 9075 2abe 6c36 b93d 2263 24be 4cf7 edbd
00000140: e8a9 00be ec12 66bc 68b8 05be d12b 293e
00000150: 024e 4cbe 12d5 99bd 5b0f 263e 4334 cfbc
00000160: bf57 643e f45c 6a3e 436c a1bc 4f9b 553e
00000170: 82fc 2b3e dd64 4b3e 5655 5cbe c950 013e
00000180: 4ff7 50bd 5c02 03be 9d0c 6ebe 0d0c 143e
00000190: 82d9 d5bd 25db 11be ecd6 15be 5b71 da3d
000001a0: 90a9 213d 0fbe 74be 3b42 d93d ac65 023d
000001b0: 238c a3bd 9c65 8fbd 425d 383e 570b 41bd
000001c0: 082d ce3c 39b9 9e3d bf98 abbd 3dde eb3c
000001d0: d805 173e 8ee0 753c b724 633e 690c 9abe
000001e0: 23c3 52be ba06 94bd 60c3 153d 803f 84be
000001f0: db8b eebd 98aa 15be 9670 2cbe 905c 22be
00000200: 1328 fcbc f4a6 d93d 7246 a73c 9fce b2bd
00000210: 30ad 8bbd 9236 d0bd 0019 1c3e 2723 313e
00000220: e163 24bd 8406 173b 4fd1 d53d 6d85 1dbe
00000230: 8e60 8e3d a8ac 0cbd 38c8 0cbd fe2a 123e
00000240: 47d8 dcbc 3c65 04be a103 4e3e 9953 f0bd
00000250: 8675 963d f053 593e 63ed 00be c12e f93d
00000260: 2a1f 97bd cf25 95bd 52d3 4c3e 9776 eb3d
00000270: 6f37 5cbd 4a87 babd 1ff8 2b3e e77e 9abe
00000280: c57e 25bd 292d 1b3e dad3 343c 9e54 253e
00000290: 8e3a f1bd 2518 0d3e e042 383e 9ce8 1abe
000002a0: f4c6 793d 6930 95be f14f 8a3d 55c3 8bbd
000002b0: 239e 43be 46ae 63be 983c 283e 934f 4bbe
000002c0: c826 423b e607 2ebe 0951 34be a87d bbbd
000002d0: bb8d 88b8 1f6c 503e 196a 35bd 8ad3 07be
000002e0: d37f 19be 9944 84bc 1915 323e f5d8 123e
000002f0: 13f0 9abd f48f 3abe 161d bd3c abb4 b4bd
00000300: eef8 df3d c59a 70be 83e4 bc3d 8a93 533e
00000310: 28c4 37be 6b27 753d b4a7 39bd f8aa 0ebe
00000320: a839 a1bd 207e 4e3c b3b6 d23d 4418 273e
00000330: 2b82 95be 8d30 c63d da4c 303e 9f52 c83d
00000340: cbe9 edbd 9a47 28bb 79f9 c53d ab30 81be
00000350: 09a8 0dbe 25d5 1b3e fd12 20be d972 d13d
00000360: 5f50 8d3d 1874 6abd be93 51bd 83a1 4cbe
00000370: 68d9 7fbe 9cad 1f3e 935a cbbd e43c 813c
00000380: 0109 ef3d 4e12 d93b 1196 d73d 3a0c 4fbe
00000390: 58bc 8fbc 9d7c a93d afa9 02be 86b5 273e
000003a0: f5b9 87be 592f 86bd 821a dfbd e2ce b2bd
000003b0: 2675 03bd 5d44 393d 1502 b3bd 4bef 96bd
000003c0: cc7f 9bbd dc65 4a3d 0085 e63d 323d 143d
000003d0: 6b73 37bc fd09 2a3e 0d8a 8cbe bac5 9a3b
000003e0: 4641 093e cd1a 633d ba2e 783d 23a8 11bd
000003f0: 5d4f 583e 13be 1e3c 95d9 163c 2069 73be
0.12377162 -0.2621316 -0.026183145 -0.31148124 0.20240436 -0.111886375 -0.05061255 -0.11313861
0.07013592 0.10124702 0.0012734837 -0.1255847 -0.00019858216 -0.019769292 0.11814912 0.033347074
0.1993819 0.052003477 0.09647799 -0.08323218 -0.17296258 -0.30634192 0.10273335 0.023545621
-0.1907461 -0.21864317 0.12784566 -0.2832735 -0.090303086 -0.11089565 0.012260878 -0.34899345
-0.0438455 -0.17792168 -0.23171726 -0.16114454 0.22735785 0.09170854 0.008701963 0.07288291
-0.014936745 0.26657897 0.10740291 0.18197498 -0.09633767 0.044902623 -0.24361551 -0.056688007
0.087782666 -0.10551222 -0.3597581 0.19888905 -0.024824526 0.11806293 0.28007886 0.10290908
-0.009457495 -0.04357828 -0.14780596 0.11212879 -0.16227399 0.10033296 0.21658342 -0.024410127
0.11462707 -0.12392914 -0.15050513 -0.09772452 -0.17607795 0.21100923 0.12481202 0.19742897
-0.08333716 0.02079065 -0.01449682 -0.3039379 -0.16646409 0.09043583 -0.16053441 -0.11619434
-0.12564814 -0.014042597 -0.13058627 0.16520621 -0.19951633 -0.07511343 0.16216795 -0.025293475
0.22299097 0.22887021 -0.019704944 0.20860027 0.16795543 0.19862695 -0.21516928 0.12628473
-0.0510171 -0.12793869 -0.23246999 0.14457722 -0.10441877 -0.14243753 -0.14632767 0.10666152
0.039468348 -0.23900627 0.106083356 0.031835243 -0.07985713 -0.07001802 0.18004325 -0.047129955
0.025167957 0.07750172 -0.083787434 0.028792495 0.14748323 0.015007151 0.22181974 -0.30087593
-0.20582251 -0.072278455 0.036563277 -0.25829697 -0.11647769 -0.14615858 -0.16839823 -0.15855622
-0.030780828 0.10627547 0.020419333 -0.08730816 -0.06820142 -0.101666585 0.15243912 0.17298566
-0.040134314 0.0023044655 0.10440313 -0.15382929 0.0695201 -0.034344345 -0.03437063 0.14274213
-0.026958598 -0.12929243 0.20118572 -0.11734695 0.073466346 0.21223426 -0.12590556 0.12167121
-0.07378991 -0.07282602 0.20002487 0.114972286 -0.053763803 -0.091078356 0.1679387 -0.30174944
-0.0404041 0.15153946 0.0110368375 0.1614556 -0.117787465 0.13778742 0.17994261 -0.15127796
0.060980752 -0.29138497 0.06753529 -0.06824366 -0.19103293 -0.22234449 0.16429365 -0.19854574
0.0029625166 -0.169952 -0.17609037 -0.091548264 -6.511385e-05 0.20353745 -0.044290636 -0.1326429
-0.14990167 -0.016145991 0.1739086 0.14340575 -0.07565322 -0.18218976 0.023085158 -0.08823522
0.109361514 -0.2349654 0.09223273 0.2066175 -0.17945921 0.059852045 -0.04532595 -0.13932407
-0.07872325 0.012603313 0.10288753 0.1631785 -0.29200873 0.09677229 0.17216817 0.09781384
-0.11616858 -0.0025677443 0.09666724 -0.25232443 -0.13833632 0.15218027 -0.15632243 0.102269836
0.06900095 -0.057239622 -0.05116629 -0.19983487 -0.24985278 0.1559357 -0.09929385 0.015776105
0.11671639 0.0066244965 0.1052667 -0.20219508 -0.017545864 0.08275721 -0.12760042 0.1637784
-0.2650906 -0.065519996 -0.10893728 -0.08730866 -0.032094143 0.045231212 -0.087406315 -0.0736986
-0.07592735 0.049413547 0.112558365 0.036191173 -0.011196951 0.16605373 -0.27449074 0.004723278
0.13403806 0.05544548 0.060591437 -0.03556074 0.21124025 0.009688872 0.009207149 -0.23770571

fc3.bias f4 [10]
00000000: 5e6d dbbd 711e 20bc 3e77 983d 41e6 313d
00000010: 7702 353d 8c77 193e 5871 a4bd f9d3 d93d
00000020: 46b3 3a3d a6c7 b3bc
-0.107142195 -0.009772883 0.07444619 0.043432478 0.044191804 0.1498701 -0.08029431 0.10636134
0.045581125 -0.021945786
