digit_model.pth (torch, 440581 bytes, 6 tensors)

fc1.weight f4 [128, 784]
000000 03 41 0d 3d 00 49 5c bc f0 43 bf bb e3 d8 03 3d
       0.034485828 -0.013445139 -0.005836956 0.03218926
000010 c0 e0 8a 3c 17 ec 0d bd c0 10 ba bc 18 1c 92 3c
       0.016952872 -0.03464898 -0.022713065 0.017835662
000020 6d 23 0b bd 90 aa 09 3c 22 3a d7 3c 64 93 d5 bb
       -0.03396933 0.008402482 0.026272837 -0.0065178145
000030 9b 24 2e bc 72 92 08 3c 00 18 9d 3b 8e 2a fb bc
       -0.010628845 0.0083356965 0.004794121 -0.03065994
000040 f0 1a f3 bb e0 d6 6b 3c 52 01 08 bc fc ed 65 3c
       -0.0074189827 0.014394492 -0.008301096 0.014033791
000050 b8 ac fc 3b 7e ac e0 3c 05 b9 08 bd 0e a8 20 bc
       0.0077110194 0.027426 -0.033379573 -0.009805692
000060 a0 d1 3f 3b f0 13 55 3b 66 39 13 bc 9c 5b 04 3c
       0.0029269233 0.0032513104 -0.008985853 0.008078482
000070 48 52 0e 3c 68 25 45 3c 6e 1e 0b bc 3c 03 91 bc
       0.00868661 0.012032844 -0.008491142 -0.017701738
000080 d9 6f 07 3d 6f 79 11 3d 18 18 e1 bc 41 72 a8 3c
       0.03306565 0.0355162 -0.02747731 0.020562293
000090 5e 81 c1 bb 47 e2 de 3c 8b 56 24 bd c0 1f 7f 3c
       -0.0059053143 0.027207507 -0.040121596 0.015571535
0000a0 73 e4 8d bc 4e e6 a8 3c 51 29 00 bb ee 3f 0f bd
       -0.017320847 0.02061763 -0.0019555876 -0.034973077
0000b0 7e 3d e5 3c d0 0d 35 3c 90 37 45 3b a6 9f cd 3c
       0.027983423 0.011050656 0.0030092932 0.02510054
0000c0 b2 05 3c bc f8 f8 90 3c b9 fa 07 3d 0e 77 06 bd
       -0.011475967 0.017696843 0.033198092 -0.032828383
0000d0 b0 bd a5 bb be 97 ef 3c 14 46 ec bb 5e dc 88 bc
       -0.005058013 0.029247161 -0.0072105024 -0.016706642
0000e0 88 f6 8f bb 1c 22 3a 3c e0 27 c2 3c 6f 7f 0f 3d
       -0.0043934025 0.011360671 0.023700655 0.03503364
0000f0 ce 70 4c bc 4d 13 2a 3c 4b 61 2a 3d bb a3 d1 bc
       -0.012478067 0.010380578 0.041596692 -0.025590768
000100 08 15 e3 bb 5f bc b9 bd 2d 35 6f bd 0f 08 08 bd
       -0.0069299974 -0.09069132 -0.05840032 -0.03321081
000110 4c 28 80 bd e9 44 5e bd 04 ff 88 bd 88 5a bd 3c
       -0.06257686 -0.054264937 -0.06689265 0.023114458
000120 d7 d7 6b bc 7b 5e 3b 3b af 33 d2 3d 47 b6 fd 3d
       -0.014394722 0.002859025 0.10263764 0.12388282
000130 41 4a be 3d 87 70 33 bd e5 fb 2f bc bd fd ec bc
       0.092915066 -0.043808486 -0.010741209 -0.028929586
000140 63 b3 cf bc 7e aa cc 3c b0 2f af bb c0 c9 10 3c
       -0.025354093 0.02498364 -0.005346261 0.008837163
000150 7e a5 8e 3c 78 0c 02 3c 40 cf ee 3b 35 23 b9 bc
       0.017412897 0.007937543 0.0072878897 -0.022599796
000160 12 a3 9d 3d 79 96 b7 3d a7 33 42 3d 76 6c ee bc
       0.07697119 0.08964247 0.04741254 -0.029104453
000170 5f 5c e8 bc f0 06 44 bd 42 67 ad bc 84 af eb 3b
       -0.028364358 -0.04785818 -0.021167401 0.007192554
000180 22 96 7a 3c 5e f7 88 bb d1 5e 9a b9 06 21 96 bc
       0.0152945835 -0.004179879 -0.00029443813 -0.018326294
000190 dc f5 39 bd b0 db 71 bd 62 ae 6d 3c 5f 80 d6 3c
       -0.045400485 -0.0590474 0.014506908 0.026184259
0001a0 42 29 3e 3d c2 23 e0 3c f5 34 46 3d 47 55 82 bc
       0.046426065 0.0273608 0.048390348 -0.015909804
0001b0 ad 22 e1 3b d0 e9 b2 3b fc 31 9d bc 88 12 b8 bc
       0.0068705888 0.0054600015 -0.019188873 -0.022469774
0001c0 4c 27 f6 bc 9d 16 2a 3d fd f3 fa 3c 56 e2 69 3d
       -0.030048035 0.041525472 0.03063392 0.057100616
0001d0 f7 76 90 3d ca 40 4e 3c 46 25 be 3d 6b 95 1d 3d
       0.07053941 0.012588689 0.09284453 0.038472574
0001e0 34 02 06 3d 6a 97 26 bc a9 0f 17 bc 53 7c 8f 3d
       0.032716945 -0.010167936 -0.009220042 0.07006135
0001f0 e6 bd 3f bc 49 5a dd 3c 65 62 36 bb 5a 31 22 3d
       -0.01170299 0.02702059 -0.0027829644 0.039597847
000200 87 72 da bc a3 6d 2b bb 18 6f 26 3d 6f 93 82 3c
       -0.026665939 -0.0026157878 0.04063329 0.015939442
000210 e0 d4 bb bc 7d fe 4a 3d 7f cd d0 3d 25 c5 3d 3c
       -0.022928655 0.049559105 0.10195445 0.011582647
000220 90 66 8c 3d 37 b8 18 3e 31 fe 13 3e d3 d6 f3 bc
       0.068555 0.14914022 0.14452435 -0.029765522
000230 3c fb 82 bc 97 ea 08 3d 3b 76 ea 3d 8d c9 cb bc
       -0.015988939 0.033426847 0.11448332 -0.02487638
000240 0d 85 b9 3d 66 06 da 3d f7 32 d8 3d 3e 31 89 bc
       0.090585805 0.10645752 0.10556596 -0.016747113
000250 21 bb c6 bc 1a ba 57 3c 7d 57 4e 3d e9 e6 1e 3d
       -0.024259152 0.013166929 0.050376404 0.03879443
000260 6a ce 62 3d 12 32 b0 3d fa 32 0f 3d 50 a4 39 3d
       0.055372633 0.086033 0.034960724 0.045322716
000270 43 0b ae 3d 97 bb fa 3c f2 e9 a1 3d 06 4e 20 3d
       0.08498242 0.030607028 0.0790595 0.03913691
000280 f2 ca 95 3d 1b a1 03 bd 16 a8 52 3d 16 00 c1 3d
       0.07314099 -0.032136064 0.05142983 0.094238445
000290 bf 62 02 3d f8 f3 a9 3d 06 53 d8 bb 86 85 af bd
       0.031832453 0.082984865 -0.006601694 -0.085703894
0002a0 1e fd cf bc f3 c2 57 3d e4 19 01 3d 38 9d db 3c
       -0.02538925 0.052676152 0.03151883 0.026808366
0002b0 c4 82 ae 3d 64 9a fb bc e5 5d c7 bb 23 d2 cd bc
       0.08521035 -0.030713268 -0.006084191 -0.025124615
0002c0 0b 39 50 3c 5b 51 cf 3c e7 14 a6 3c ef 82 8b 3d
       0.012708913 0.025307348 0.020273639 0.06812083
0002d0 7d 09 94 3c 23 17 96 3d 2a e9 90 3d 5e 9b a4 3c
       0.01807093 0.07328632 0.070757225 0.020093616
0002e0 8f 48 98 3d d5 f0 ce 3d aa 76 ee 3d b7 30 02 3d
       0.074357145 0.10104529 0.11643727 0.03178474
0002f0 ce e1 b1 3d 51 2e 07 3c 62 b2 63 b9 9a 3d 0b bd
       0.08685647 0.008250789 -0.0002171486 -0.033994295
000300 74 1a 24 3d 03 07 90 3c 35 75 4e 3d 60 01 09 3e
       0.04006429 0.017581468 0.050404746 0.13379431
000310 3c 7c a2 3c e8 ec ed 3d 70 76 35 3d 28 d7 cb bd
       0.01983463 0.11617452 0.044302404 -0.09953147
000320 bf 25 d9 3c 4b c1 42 3d 87 ad e8 3b bc 1b 9c bc
       0.026507257 0.04754762 0.007100764 -0.019056194
000330 f1 53 43 3c 21 d9 e8 3b 18 8d 07 bc ec 4e c9 3c
       0.011921869 0.007105962 -0.008273385 0.024573766
000340 ae 98 5f 3d 3c 98 61 3d 27 7b 0b 3e 32 03 91 3d
       0.054588966 0.055076823 0.13621198 0.070806876
000350 22 13 8c 3d 1e 42 a4 3d 5c 02 19 3d 88 0f db 3c
       0.06839587 0.08020423 0.037355766 0.026740804
000360 59 37 a4 3c 55 d5 bf bc 0f 92 a5 bd 02 43 e8 bd
       0.020045923 -0.023417154 -0.08084499 -0.11340906
000370 9a 92 d3 bd df ac 83 3d 80 3d 98 3d 21 8a 96 3d
       -0.103306964 0.06429457 0.07433605 0.07350565
000380 f8 2d 82 3b ac ff 0e bc bf fd de bc 71 5a 1a bd
       0.003972765 -0.008727949 -0.027220605 -0.037683908
000390 97 36 9c bc 39 b3 11 3d 11 dc d4 3c 19 97 be bc
       -0.019069 0.03557131 0.025983842 -0.023265408
0003a0 ec c6 7d 3a 1a 4c 6d 3d 5a 50 83 3b 39 c7 d5 bc
       0.0009680826 0.057933904 0.0040073814 -0.026095973
0003b0 a5 4c 2d 3c 6c 10 ce 3c eb 76 9d 3d 9e eb 65 3c
       0.0105773555 0.025154315 0.076886974 0.014033226
0003c0 d7 7a b9 3c fc aa 95 bc e7 6c 58 bd fb 46 9b bd
       0.022641582 -0.018270008 -0.052838232 -0.07581898
0003d0 e9 52 48 bd 44 2f 39 bd 34 8d c8 bd d8 be ee bd
       -0.048907194 -0.04521109 -0.09792557 -0.11657494
0003e0 5e 68 1e be c2 0a 90 3c 0d e2 2a 3d 5e e6 2e 3d
       -0.154695 0.017583255 0.041719485 0.042700164
0003f0 98 52 11 3c cd 90 1c bc ef 02 f8 3c fc 21 04 3d
       0.00886979 -0.009556008 0.030274836 0.032258973

fc1.bias f4 [128]
000000 02 e5 71 bc db 10 83 bc 28 44 2c 3c de 0b a7 bb
       -0.014764072 -0.015999248 0.010514297 -0.00509785
000010 d6 c3 95 3b 01 67 86 3d 1f 97 67 3c ec c7 f0 3d
       0.0045704646 0.06562615 0.014135151 0.11756882
000020 9b 38 a2 3c 4e f7 58 3c 83 f0 81 3d d3 b7 63 3d
       0.019802382 0.013242556 0.06344702 0.05559523
000030 d1 9a 8e 3d 5f c8 e6 3c 0e 57 12 3c 0f 7b 6b 3d
       0.06963123 0.028171716 0.008931888 0.057490405
000040 1b f6 da 3d 41 b6 08 3d 32 b2 3c 3d 32 6e 0d 3c
       0.10691472 0.033376936 0.046068378 0.00863223
000050 a8 05 c0 bb be 2f 2f 3c a4 c2 57 bd 93 86 f6 3d
       -0.0058600493 0.010692535 -0.05267586 0.12037387
000060 8b 3e 66 3d 41 59 e1 bd 1d c1 9b 3c 1a 72 d3 bc
       0.05621199 -0.11003352 0.019012982 -0.025811244
000070 eb dd 20 bd 56 91 eb 3d 25 8a 7c 3d 09 c0 16 bb
       -0.039274137 0.1150233 0.061655182 -0.0023002645
000080 3a 93 56 bd c8 d3 5a 3d 41 93 b0 bd 48 05 45 3d
       -0.0523865 0.053424627 -0.086218365 0.04810074
000090 fe ae 88 3d a9 e4 63 3d 83 74 4a 3d b4 87 93 3d
       0.06674002 0.05563799 0.04942752 0.07203618
0000a0 13 11 75 3b 47 58 79 3d 78 bf d0 3d 76 76 0f 3e
       0.003739421 0.060875203 0.1019277 0.14010033
0000b0 49 e8 ea 3b bb b7 49 3d 1c b3 10 bd be 91 02 3e
       0.007168804 0.049247485 -0.035327062 0.12750909
0000c0 ae 7f 68 3d 95 4f 0b 3d dd e9 9f bd 7f f3 0b bc
       0.05676239 0.034011442 -0.07808278 -0.008541941
0000d0 9d 53 84 bd f9 4d b5 3d 44 67 27 3d 42 79 07 3d
       -0.064612605 0.08852763 0.040869966 0.033074625
0000e0 66 9c 72 3d da 21 a4 3d d8 35 92 3d 91 ad 8e bc
       0.059231184 0.08014269 0.07139176 -0.017416747
0000f0 6d 6d 07 bd 4a e6 bb bc ad f9 92 3d 0d b9 67 bd
       -0.03306334 -0.022936959 0.07176528 -0.056572963
000100 95 5a c5 3c 12 d1 14 3c 5c a6 4d bd 92 c3 b7 bb
       0.024091044 0.009083049 -0.05020748 -0.0056080306
000110 83 f0 d9 3d 12 40 28 3d 01 e9 1b bd 57 a9 f4 3d
       0.10641577 0.041076727 -0.038064007 0.119463615
000120 92 cf a1 3d 8c d0 f7 3d 52 7c c6 3c 60 62 42 3d
       0.07900919 0.12100324 0.024229202 0.0474571
000130 97 5b 91 3d 6a 64 92 bd 88 bf 04 3d 6a a6 26 3c
       0.070975475 -0.07148059 0.03240922 0.010171512
000140 27 cb 9a 3c da fa 32 3e 13 04 9f bd bc f4 b4 3d
       0.018895699 0.17478505 -0.07764449 0.08835742
000150 93 c5 3a bd f6 40 03 3e 1c 21 ad bd 44 bb 3b bd
       -0.045598578 0.1281775 -0.08453581 -0.045832887
000160 02 47 62 bc 66 14 3f 3d 52 74 c9 bd 47 85 f1 3d
       -0.013810875 0.046650313 -0.098366395 0.11792999
000170 ab d8 90 3d 1a c7 5f 3d d7 64 be 3d 26 71 14 3d
       0.07072576 0.054633237 0.092965774 0.03624072
000180 b1 bd b3 3c 6c 78 6f 3d ac 2d 50 3d 3f 96 fa 3c
       0.021941038 0.058464453 0.050824806 0.030589221
000190 56 74 9e bd fc 73 df 3d 6e fb 98 bd cf f6 d5 3c
       -0.07737033 0.10910794 -0.074698314 0.026118664
0001a0 78 40 93 3d e5 69 8a bd 53 ce a9 3b ba 8d 4f 3d
       0.07190031 -0.06758479 0.0051820665 0.05067227
0001b0 3b 25 18 3e d1 8a 80 bc d7 a5 ca 3d d2 ff 94 3d
       0.14857952 -0.015691193 0.09894913 0.07275356
0001c0 11 62 29 bd 14 7f 16 3d f6 2b d0 3d e0 50 81 3b
       -0.04135329 0.036742285 0.10164635 0.0039464086
0001d0 43 6c ec 3d 04 16 51 3d 06 a8 9f 3d e9 c1 af bc
       0.11544087 0.051046386 0.0779572 -0.021454768
0001e0 77 e9 01 bd 9a 21 ee 3c 5c 16 b2 bd 92 b7 cf 3d
       -0.03171679 0.029068757 -0.08695671 0.10142435
0001f0 4a 81 4a bd aa 99 ae 3d 6c ba 12 3c 52 48 bd 3c
       -0.049439706 0.08525403 0.008955579 0.023105774

fc2.weight f4 [64, 128]
000000 79 e6 8b be aa 12 11 be c9 66 59 3d 7e 33 44 3e
       -0.27324274 -0.14167276 0.05307654 0.19160268
000010 19 4c b0 3d cf 3c c0 bb 19 c3 a0 bd b4 96 b9 3b
       0.086082645 -0.005866624 -0.07849712 0.005663717
000020 1c b0 7b 3d eb 7c 3d bb 44 b3 08 3d d6 78 bb 3d
       0.061447248 -0.0028913568 0.033374086 0.09153907
000030 79 3e 08 3e d5 f2 ee 3d 9f 86 63 3d fb 25 b0 3d
       0.13305081 0.1166741 0.055548307 0.08600994
000040 2a 38 7e 3c ae 47 4a 3d f6 52 03 3e 23 b6 74 bd
       0.01551632 0.049384765 0.12824616 -0.05974401
000050 7c 6f 9e 3d 2f ed b7 bd 30 02 98 3c 47 4f b1 bd
       0.07736108 -0.08980786 0.01855573 -0.08657699
000060 db de 1c be a4 9f bd 3b 85 fe 0a bd dd d5 d9 3d
       -0.15319388 0.005786853 -0.033934135 0.10636494
000070 da 54 90 bd e2 cb 93 3d 3c 2e e9 3d 68 94 e5 3d
       -0.07047434 0.07216622 0.11385772 0.11209947
000080 76 8f c6 bc 06 22 a2 39 fb 58 01 be 21 c0 13 3a
       -0.02423833 0.00030924397 -0.126316 0.00056362344
000090 ce f5 3e 3e 45 75 d7 bd 2c b8 6e 3d c3 69 7e 3d
       0.18648455 -0.10520414 0.05828111 0.06211258
0000a0 b1 9e 98 bd 7f 54 88 3e b8 54 d1 bc f0 86 0f 3e
       -0.07452143 0.26626965 -0.025553092 0.14016318
0000b0 11 e0 d4 3d d6 04 21 be 3c 6d aa bd f0 ae f6 3d
       0.103943 -0.15724501 -0.08321616 0.120450854
0000c0 fa af d1 3d c9 15 e3 3c 02 d1 41 3d d0 94 8b 3c
       0.10238643 0.027720349 0.047318466 0.017038733
0000d0 37 f7 df bd 4a 6b 10 bd 6e 50 1a 3e be 54 d2 3c
       -0.10935824 -0.03525857 0.15069744 0.025675174
0000e0 24 c6 cc bc f4 70 b7 bd 62 7f 02 3e 9e e0 11 3c
       -0.024996825 -0.08957091 0.12743905 0.008903651
0000f0 b5 bd 87 bd 48 da 28 3d 7d c0 dc bc ad 53 31 3d
       -0.066279806 0.041223794 -0.026947254 0.04329269
000100 87 fc b7 bd 61 ec f7 3b 7e ea 94 3d 37 37 58 3d
       -0.08983713 0.0075660204 0.07271288 0.052787032
000110 c3 de ef 3d e6 39 cd 3d f0 e6 03 3d b4 ff b3 3e
       0.1171241 0.10020809 0.03220266 0.35156024
000120 54 ab 67 bb 0c 66 93 3c 8b 5d 2e 3a d3 b5 fe 3c
       -0.0035349922 0.017992996 0.0006651512 0.03109256
000130 6c 08 ea 3d 39 ae 86 bd c2 16 64 3e f3 b6 bb bc
       0.114273876 -0.06576199 0.22274306 -0.022914385
000140 a8 28 1b 3d d5 59 48 be 65 02 0d be 3f 37 c4 3d
       0.03788057 -0.19565518 -0.13770445 0.0958085
000150 11 2b 3d 3d b3 a6 46 3e c2 db b1 3d 7e ff 92 bc
       0.04618365 0.19399528 0.086844936 -0.017944094
000160 5e 35 e9 3d 92 de 93 3d 5e 6d d0 3c f2 9a 36 3e
       0.11387132 0.07220186 0.025442775 0.17832544
000170 7d 01 ec 3c ae ce f4 bb 06 fc c0 3d b4 40 d1 bb
       0.028809303 -0.007470927 0.0942307 -0.006385887
000180 3a de fe 3c f6 df 0a bd 81 ed b7 3b 85 0d 8d bd
       0.031111825 -0.033904992 0.0056130295 -0.06887344
000190 37 d5 96 bb 66 f7 8b 3e d3 20 ec 3c b8 c5 db 3c
       -0.004603054 0.27337188 0.028824246 0.026827678
0001a0 a5 9e d0 3d b0 96 d4 bd 7d 72 40 bd b2 00 df bb
       0.10186509 -0.10380304 -0.046984185 -0.006805503
0001b0 2a 81 90 3c 81 f7 a1 bd ff 26 8e 3e 64 35 07 be
       0.017639715 -0.07908536 0.27764127 -0.1320396
0001c0 65 73 c5 3d ec 88 98 3c 84 64 2e 3e 72 bf b8 3d
       0.096411504 0.018619977 0.17030531 0.0902089
0001d0 42 79 b7 3d 82 7e 26 bd 84 68 02 3e 71 7b a9 3d
       0.08958675 -0.04064799 0.12735182 0.08275498
0001e0 9e 74 13 ba 8d 76 7b bc 37 6a 8f 3d 83 52 8f 3e
       -0.00056249823 -0.015348089 0.07002681 0.2799264
0001f0 7f 45 bc bd ca d0 38 bb 25 e2 c2 bd e3 a1 4d 3d
       -0.09192943 -0.002820062 -0.0951579 0.050203215
000200 2c 87 f6 bd 2a de 2f 3d 2a 28 bb bd 6e c3 b9 3d
       -0.12037501 0.04293648 -0.0913852 0.090704784
000210 c2 e8 69 3e ca c6 1d 3c cc 49 91 3d 28 5a 40 bd
       0.22842696 0.009629915 0.07094154 -0.04696098
000220 f8 79 c2 3d 2c bd d7 bc 59 fc f6 bd b0 d7 0f 3d
       0.0949592 -0.026335321 -0.1205985 0.035117805
000230 26 1a d5 3a c0 82 0b be 2a 0e a5 3d 60 2c b5 3d
       0.0016258403 -0.13624096 0.08059342 0.088463545
000240 5b ad 50 3e 26 62 58 3d 47 20 05 be e1 ab 5d be
       0.2037863 0.052827977 -0.13000594 -0.21647598
000250 9a 24 c2 bd cd 6c fb 3c 9a 0c 16 3d ba 21 82 bd
       -0.094796374 0.030691529 0.03663311 -0.06354089
000260 a5 3c b0 3d b3 1c 67 3d b1 af a4 bc ca 8a ec 3c
       0.08605317 0.056423854 -0.020103307 0.028874774
000270 c8 b8 9a bd bd 7c 2c 3d 57 08 86 3e 74 c8 3d 3d
       -0.075547755 0.042111147 0.26178238 0.046333745
000280 64 52 76 bd b9 99 6f bd 79 52 76 be c0 ec 8b 3d
       -0.060137168 -0.05849621 -0.24054898 0.06832266
000290 e7 d9 bd be 85 bb fa bd e9 77 b8 3d 92 1c 00 3e
       -0.3708031 -0.12242798 0.09007246 0.12510899
0002a0 78 66 03 3e f2 de fa 3d 07 a0 7d 3e 42 d2 84 3d
       0.12832057 0.12249555 0.24768077 0.06485416
0002b0 df 58 87 3c dc 1d 71 be a8 c5 49 3d 1a 7d 1e bd
       0.01652187 -0.23546547 0.049260765 -0.038693525
0002c0 d3 22 7e 3e 8b 6b 81 3d 2b ab 09 be 25 cd b2 be
       0.24817972 0.0631934 -0.13444202 -0.34922138
0002d0 a4 89 82 3b 0d 69 7b 3e a4 31 6c 3e df 75 b3 3d
       0.003983693 0.24551792 0.23065811 0.087627165
0002e0 88 c6 14 be 98 13 d0 bd d0 4d 96 3d 16 8a d5 bc
       -0.14528859 -0.10159987 0.0733906 -0.026066821
0002f0 e9 75 94 3a 88 62 97 bd dd ca 90 3e b7 6d 06 3d
       0.0011326644 -0.0739184 0.28279772 0.032819476
000300 17 1e 35 3e 11 b2 e5 3d 95 e1 14 3d c0 4c 7f 3d
       0.1768726 0.11215604 0.036347944 0.062329054
000310 f3 c0 c2 3c e2 b7 0b be 57 f9 26 be 93 02 20 3e
       0.023773646 -0.13644364 -0.16306053 0.15625982
000320 92 d3 83 3c 64 e8 10 3e 9a 88 8d 3d e3 bb a5 3c
       0.016092096 0.1415115 0.0691082 0.020231193
000330 51 2c 76 3d bd 23 f4 bd 60 94 33 3d 94 70 a7 3d
       0.060100857 -0.11920879 0.043842673 0.081757694
000340 5d b9 31 bd 12 ed 7b 3e 4c d8 a0 bc 71 12 1a be
       -0.043389667 0.24602154 -0.019634388 -0.15046097
000350 79 1a 90 bc 24 4b 3a be 70 c2 1b be fc 89 0c be
       -0.017590748 -0.18192726 -0.15210891 -0.13724512
000360 d2 c1 1a be 2e 39 e0 3d 8d 7f 84 3d c4 29 39 3e
       -0.15112999 0.10948406 0.06469641 0.18082339
000370 fd 1a c3 3c 95 b3 ed bd 79 64 de 3d 00 f1 9c 3d
       0.02381658 -0.11606518 0.108590074 0.076631546
000380 99 74 a9 bd d9 ea c8 bc f4 d5 e9 3d 3c 44 1d 3d
       -0.08274192 -0.024526047 0.114177614 0.03839515
000390 96 6a 99 bd f9 71 da 3c b2 4c 80 3d b4 e9 7b be
       -0.07491033 0.026665675 0.062646285 -0.2460087
0003a0 75 e0 6b 3c fb 27 5e be 54 1b d6 3d 1e 24 02 bc
       0.014396776 -0.21694939 0.10454431 -0.007943181
0003b0 f2 8f 14 3e 24 b2 cc 3d c5 65 2c 3e 68 fa 27 3e
       0.14508036 0.09994915 0.16835697 0.16404116
0003c0 5a b7 6d 3e 54 ec ff bd 17 25 26 be 0f b0 08 be
       0.23214474 -0.12496248 -0.16225086 -0.13348411
0003d0 70 32 dc 3d 27 1b ce bd 81 cb d3 bd 15 1e 14 3e
       0.10751808 -0.10063773 -0.1034155 0.144646
0003e0 e5 3f b1 bc 0d fa db 3d 89 43 ef 3d 94 8a b4 3e
       -0.021636913 0.10741053 0.11682803 0.35261977
0003f0 f0 21 11 3d 7d b4 10 bd 94 30 73 bc be ec 6e bd
       0.035432756 -0.035328377 -0.014843125 -0.058331244

fc2.bias f4 [64]
000000 1e 35 3e 3d dc 73 fe 3d 80 0a 25 3d 22 52 86 3d
       0.046437375 0.12424442 0.040293217 0.06558634
000010 f5 13 69 3d 54 00 ef 3c 48 18 11 3e 0a 4e b5 ba
       0.056903798 0.029174961 0.14169419 -0.0013832462
000020 a7 42 93 3d 2c 3b 1d 3e 07 3b d3 3c 6c ca cf 3d
       0.07190447 0.15354604 0.025784982 0.10146031
000030 01 73 f9 3d 7d b7 33 3d cf bf df 3d 84 8b 8d 3d
       0.121801384 0.04387616 0.109252565 0.06911376
000040 c1 6c 08 3d 27 fb 48 bd 77 61 1e 3d 90 ce 94 3d
       0.03330684 -0.049067643 0.03866717 0.07265961
000050 56 fb cb 3d d1 71 ea 3d ef 16 cc bd af ed 0f bd
       0.09960048 0.1144749 -0.09965312 -0.035138782
000060 a0 17 a5 3b 03 4b 81 3d a1 2c b0 3d 93 97 6a bd
       0.0050382167 0.063131355 0.08602262 -0.05727346
000070 da f6 01 3e 67 5d c4 bc 44 1e 73 3d d2 50 44 3d
       0.12691823 -0.023970319 0.059355035 0.04792864
000080 aa f7 3e bd 9f 4e c7 bc f8 6e d8 bc c1 30 63 bd
       -0.04662291 -0.024329482 -0.026420102 -0.055466417
000090 1a 1f d4 3d 1c b5 5f 3c 5b 18 5a bc 1d 9f d4 bc
       0.10357495 0.01365402 -0.013311471 -0.025954777
0000a0 3c 01 05 3e 30 9b 5d bd 9b 75 35 3d 21 a3 08 bc
       0.12988752 -0.054103076 0.04430161 -0.008339674
0000b0 c3 9d 16 3d 97 4b 4e 3d 96 63 04 bd 47 45 32 3d
       0.036771547 0.050365057 -0.032321535 0.0435231
0000c0 28 7a 0d bd 86 3d 95 bd 75 ab 90 3d e9 d1 a4 bc
       -0.034540325 -0.07287125 0.07063953 -0.020119624
0000d0 c8 26 a5 bd 3f ed 7e bc 15 fb 0d 3e 7b 13 6e 3a
       -0.080640376 -0.015559494 0.13865311 0.00090818823
0000e0 cf ad a1 3d 6d 34 96 3d ea 60 b3 3d f9 be 10 bd
       0.078944795 0.07334218 0.08758719 -0.035338376
0000f0 ad 1d 0b 3d d7 78 bb 3d 0f d3 92 3d 2c 50 bb 3d
       0.033963848 0.09153908 0.071691625 0.09146151

fc3.weight f4 [10, 64]
000000 ee c3 e7 bd 08 b2 ef 3c 7d 7e 31 bc 91 62 86 3d
       -0.113166675 0.029259697 -0.01083338 0.06561769
000010 df ba 0f be af da 85 3d 00 5e f4 bd 84 31 49 bd
       -0.1403613 0.06535851 -0.119319916 -0.049119487
000020 12 e6 81 bc c8 90 42 be d9 51 95 3d 12 32 e4 3c
       -0.015856776 -0.19000542 0.07291002 0.027855907
000030 1a cc 99 bb b7 34 54 bb f5 86 1f be 66 33 a3 be
       -0.0046935203 -0.0032380053 -0.15578826 -0.3187515
000040 e6 13 02 be 90 57 9d be 5e fd 46 be 46 ce 1b 3c
       -0.12702903 -0.30730867 -0.1943259 0.009509629
000050 63 2f 1f bd d5 48 0f bd 4e 75 89 bd f6 74 00 3e
       -0.03886355 -0.034981567 -0.06711827 0.12544617
000060 8b 34 f3 3d 79 b6 06 be cb ff 28 be fe c8 d5 3d
       0.11875256 -0.13155545 -0.16503827 0.10438727
000070 97 cd c1 3d e9 46 16 3e 57 e8 45 3e 90 bd 60 3b
       0.09463041 0.14675488 0.19326912 0.0034292676
000080 3a 6f 1f 3e 85 cc cd bc 66 a8 a6 3d 2e a0 03 be
       0.15569773 -0.025121937 0.08137588 -0.12854072
000090 b0 62 b7 3d ad 34 b4 be e9 b5 48 3c f6 92 10 3d
       0.0895437 -0.35196438 0.012250402 0.035296403
0000a0 2f 32 b7 bd 35 7c ea 3d b4 28 14 3e 02 39 6d be
       -0.08945119 0.11449472 0.14468652 -0.23166278
0000b0 62 2a 99 3d be d5 2b 3d 93 22 e8 bd 49 fe 29 be
       0.07478787 0.041951887 -0.113347195 -0.16600908
0000c0 cd df d3 3d 5f 26 c8 3d 8a 9c 86 be fe ad 17 3e
       0.10345421 0.09772944 -0.26291305 0.14812467
0000d0 83 59 67 3e 0b 35 04 bd f4 81 fb 3d 36 6e 6a be
       0.2259274 -0.03227715 0.12280646 -0.22893605
0000e0 8e 9e 41 be af 5e 1f be e1 25 fe bd 28 f2 43 3e
       -0.1890814 -0.15563463 -0.124095686 0.19135344
0000f0 11 3a 60 be 1e 9f 8a 3d 97 1f 9d be 66 1f 12 be
       -0.2189715 0.067686304 -0.30688164 -0.1426979
000100 ae 18 0f 3e 4a 54 9f 3c e1 16 a5 3c df fb 67 be
       0.13974258 0.019449372 0.020152511 -0.22654675
000110 a5 41 a0 be 33 ce 8b bb 03 fd 46 3e 34 80 31 be
       -0.31300083 -0.004266524 0.19432454 -0.17334062
000120 61 c9 2b 3e fd 3b 4d bd bc 27 b9 bd 6d 0f 24 3e
       0.16776039 -0.050106037 -0.09040782 0.1602151
000130 31 47 fe bc 91 a0 3b bd 58 08 1d 3e 06 06 e6 3d
       -0.031039806 -0.045807425 0.15335214 0.11231618
000140 c1 2f 83 be 2d 1e b7 3d c4 59 25 3e fe 0d b8 bd
       -0.2562237 0.089413024 0.16147524 -0.08987044
000150 ba b2 e3 3e 32 fb df bd 95 19 77 bd 0b 86 92 be
       0.44472295 -0.109365836 -0.06032713 -0.28617892
000160 51 4e 06 3b 97 62 c8 3d de c4 3e 3d 4f 5d 2f be
       0.0020493458 0.097844295 0.046574466 -0.17125438
000170 1c f3 40 3a b6 87 73 be 41 58 3a 3e 1c 6c ab 3d
       0.0007360445 -0.23782238 0.18197729 0.083702296
000180 39 80 e9 bd e0 da 28 3e 51 45 53 be 57 80 8f bd
       -0.1140141 0.16489744 -0.20631911 -0.07006901
000190 d2 35 30 be 1a bd 2e 3e 8f 84 03 bd c6 15 4a 3d
       -0.17208031 0.17064324 -0.03210884 0.04933717
0001a0 28 8d 32 3e e9 e0 35 bd 60 74 25 3e 5c b3 0c 3e
       0.1743666 -0.044403944 0.16157675 0.13740295
0001b0 0e 14 b3 3d fc 9d 89 be 9a 0c 95 3c 65 f1 73 3e
       0.087440595 -0.26878345 0.018194485 0.23822553
0001c0 4b 2b 76 be a8 f4 4c be 2b 17 51 be de 61 67 3e
       -0.24039952 -0.20015204 -0.20418994 0.22595927
0001d0 2a 3d f4 3b 33 b9 8a be 7f 4f fb bd b7 a9 5e bc
       0.0074535804 -0.2709442 -0.12271022 -0.013590268
0001e0 53 5f 12 be 8e 21 3b be 04 74 24 be 02 ff e5 3d
       -0.14294176 -0.18274519 -0.16059881 0.112302795
0001f0 31 58 ef 3d b0 b8 7c 3d 9b 0f c4 3d e3 91 08 3d
       0.11686743 0.06169957 0.09573289 0.033342253
000200 b2 d5 20 3e 09 95 80 be 0d aa 1e 3d f0 8a 7a bc
       0.15706518 -0.25113705 0.03873639 -0.015291914
000210 89 b6 4e be 50 69 06 3e 41 44 22 be 02 42 af 3d
       -0.20186819 0.13126111 -0.1584635 0.08557512
000220 b1 6a bd 3d 15 eb 4e be c0 12 3b 3c c2 f3 a8 be
       0.092488654 -0.20206864 0.011418045 -0.32998472
000230 96 dc 52 3e d1 0b a8 3d 0a e3 45 3e 81 c5 1e 3e
       0.2059196 0.08205379 0.1932489 0.1550503
000240 68 6f 24 be 6c 6f 6d 3e 9d 38 fc bd f0 17 52 3d
       -0.16058123 0.23187035 -0.123154856 0.05129236
000250 01 62 83 3e 74 a0 56 3e a6 67 a0 bd 10 8a fd bc
       0.2566071 0.20959646 -0.07832269 -0.030949622
000260 d8 a8 43 be ff 39 9c bd e6 18 f2 3c 8f 1c 0f 3e
       -0.19107378 -0.076282494 0.029552888 0.13975738
000270 e8 cc 57 3d 9e d1 17 be df a1 1e 3e 7d d6 8a 3d
       0.05268565 -0.14826056 0.15491436 0.06779192
000280 93 ce 9e bd d2 90 23 bd 7b 75 4a 3d 20 7b b1 3d
       -0.07754245 -0.039933033 0.049428444 0.08666062
000290 d9 a5 e8 bd 04 0c 3e bd 45 38 3a bd e8 4e 86 bd
       -0.11359758 -0.046398178 -0.04546382 -0.06558019
0002a0 c2 1b 58 3e eb d1 0a 3e 51 3f f6 bd 4b 32 b1 be
       0.21104339 0.1355664 -0.120237954 -0.34608683
0002b0 27 f3 27 3c c4 66 b7 3d 13 f7 c8 3d 0b a8 95 3c
       0.010250843 0.08955148 0.09812751 0.018268606
0002c0 7e 26 db 3c 51 2a e0 bd cc fd 43 be dd 1d 9c bd
       0.026751753 -0.10945571 -0.19139785 -0.076228835
0002d0 fd 3d 96 3b 72 78 8c 3d 93 40 f7 bd a6 44 e1 bd
       0.0045850263 0.068589106 -0.120728634 -0.10999422
0002e0 ba ac ab bc 05 1a 88 3d 2a b6 04 3e aa 65 3d be
       -0.020956386 0.06645588 0.12960115 -0.18495813
0002f0 8f 74 8a be 47 41 fd bc ca 6f 92 3b bc bd 01 bc
       -0.27042052 -0.030914916 0.0044688927 -0.007918771
000300 2a 4b 54 be de 2c 96 be aa de 01 3e 55 20 07 be
       -0.20731798 -0.29331106 0.12682596 -0.13195927
000310 d2 a5 26 3e d4 27 c7 3c f5 aa c0 bc 94 7b 08 3e
       0.16274193 0.024310984 -0.023519019 0.13328391
000320 8b fc 14 3e 28 38 24 be c0 0b ee 3a 27 fa f1 3d
       0.14549462 -0.16037047 0.0018161461 0.11815291
000330 79 89 27 bd 98 21 ea 3a 3a f9 f2 bd be 6d 7a 3d
       -0.04090259 0.0017862795 -0.118639424 0.061139815
000340 32 b0 c2 3c 69 b8 34 3e cd fe 11 bd 02 be 19 be
       0.023765657 0.17648472 -0.035643388 -0.15013888
000350 9c f5 d1 3c b3 96 44 bd 3a 63 82 bd 25 4d 36 3e
       0.025629811 -0.04799528 -0.06366582 0.17802866
000360 78 0e d2 bd ff f3 0c 3e 4c 62 4c bb 45 48 ee 3d
       -0.10256666 0.13764952 -0.003118652 0.11634878
000370 1c fb fe bd b3 95 0a 3e 23 28 31 be f3 cf 36 be
       -0.12450239 0.13533668 -0.17300467 -0.17852764
000380 5b 75 55 3e c7 f5 06 3e 8b 1b 46 3d ff 64 ae bd
       0.20845549 0.13179694 0.04836611 -0.08515357
000390 f9 36 a2 3d 4f 6a 5a 3e 24 fe 82 3c b4 fd bf bd
       0.079206415 0.21329616 0.015990324 -0.09374562
0003a0 cc 24 7b bd 48 86 db bd ed 18 e8 bd da 0b ed 3d
       -0.06131439 -0.107189715 -0.11332879 0.11574526
0003b0 0a ab d4 bd 94 22 e9 3a 31 fa 72 3c 30 b4 38 3e
       -0.103841856 0.0017786794 0.014830158 0.18037486
0003c0 ce ce 8b bd 92 14 05 bd 09 38 d9 bb 91 bd 5f 3d
       -0.06826554 -0.03249032 -0.0066289944 0.054624144
0003d0 d3 be 8a be db 3f a7 bd b5 82 0a be 48 4e 35 bd
       -0.27098712 -0.08166476 -0.13526423 -0.044264108
0003e0 18 9b 6e bd ca f1 12 be d7 ae 18 3d 62 d8 d7 bc
       -0.058253378 -0.14350048 0.037276115 -0.026348297
0003f0 a0 5d 1b bd 94 89 b6 3d dd bf 84 be 2a 10 9b 3d
       -0.037931085 0.0891296 -0.2592763 0.075714424

fc3.bias f4 [10]
000000 33 bf 2d be 5f 37 19 3e 2d 99 2f bd ad 2d 6e 3d
       -0.16967468 0.14962529 -0.04287069 0.05814903
000010 46 08 e8 3d 12 64 1d 3e e0 cf 7e bc d5 06 ee b9
       0.11329703 0.15370205 -0.015552491 -0.00045399988
000020 39 7c ae bd b0 66 bc 3d
       -0.08519787 0.091992736
