digit_model.pth (torch, 440581 bytes, 6 tensors)

fc1.weight f4 [128, 784]
-0.023543194 0.01700136 -0.031297877 0.032148514 0.02437244 0.03013451 -0.028345803 -0.010441104
0.010725584 0.004301075 -0.029077271 -0.016276134 -0.060834788 -0.025157219 -0.021604467 0.034297984
-0.029439077 -0.013243016 0.021928266 0.020247594 -0.0021057948 0.021574423 -0.017107278 0.034773987
0.023446217 0.0013687499 0.024236433 0.018074617 -0.022750754 0.021800868 -0.007481996 -0.03198554
-0.03132529 -0.018576331 -0.04365057 -0.06051261 -0.009747451 -0.074006595 -0.06803509 -0.028161632
-0.09048172 -0.07331867 -0.052889407 -0.07454085 -0.09191662 -0.12864326 -0.050482012 -0.07766552
-0.12692273 -0.12124486 -0.013537464 -0.06464134 -0.021899246 -0.0151569545 0.02401704 0.006965965
-0.014198482 -0.028160412 0.013510631 -0.029253958 -0.096400425 -0.014701002 -0.08075694 -0.05123614
-0.08071103 -0.16923474 -0.14792776 -0.1819973 -0.11436378 -0.13705216 -0.15457556 -0.10339006
-0.010967884 -0.05151907 -0.12104557 -0.057468034 -0.05987212 -0.10933831 -0.08957125 -0.057499766
-0.07424395 -0.032513306 -0.017375052 -0.024585173 -0.025749255 -0.009667138 0.061218496 -0.037063804
0.016421922 0.016275823 -0.07011382 -0.08440711 -0.037768528 -0.084262416 -0.01389185 0.01102139
0.02237201 0.011757838 0.015501169 0.07329236 0.034536615 -0.0008882653 -0.031685084 -0.0768847
-0.058297217 -0.10794403 -0.0792952 -0.04091784 -0.042492755 -0.04925239 -0.022809729 0.020664368
-0.00020959973 0.056398135 0.090242885 0.1295189 0.013112871 -0.013615409 -0.028112981 -0.031918075
-0.0902167 -0.035617612 -0.030964531 0.024957154 0.060243927 0.023782378 0.045699816 0.029789558
0.037138578 0.0034095435 -0.004433439 -0.054318227 -0.119774036 -0.049734116 -0.021880262 -0.050401285
0.08950592 0.037592836 -0.034293547 -0.013955582 0.0069700927 0.012200914 0.057963613 0.04177298
-0.019259771 0.018854532 0.05381181 -0.042516463 -0.04098485 -0.029812343 -0.01182792 0.009590109
-0.012953052 -0.0144087095 -0.026956698 -0.005003492 -0.021944052 -0.04570278 -0.03825784 -0.0947794
-0.09615428 -0.16136739 -0.11688049 -0.09678978 0.011764584 -0.0033720415 0.0037421533 0.02518409
-0.03527818 -0.0045487974 0.102858275 0.057069186 0.014337326 0.024914961 -0.022942133 0.005340303
0.013207663 0.032567978 0.016627088 0.062304292 0.009589712 0.06430129 0.04386584 -0.01669154
0.068273105 0.016129643 0.054073445 -0.047699295 -0.01732593 -0.04613633 -0.07982096 -0.12837987
-0.06550063 -0.067915104 0.010823376 0.00816072 -0.002232353 0.023117408 0.042571843 0.05665779
-0.01407094 0.0009803756 -0.009627234 -0.002965406 -0.016262429 0.022655824 0.056201875 0.08099441
0.065855615 0.029221624 0.05535297 0.07215276 0.1060873 0.06336611 0.02993043 0.036614954
0.039777953 -0.057278037 -0.11430289 -0.09002347 -0.04535683 0.011846434 0.059424356 0.055619814
-0.059978634 0.01087644 0.014570503 -0.005167588 0.037762053 -0.03343342 0.031488743 -0.004227573
0.005406346 0.067962274 0.058835868 0.033116434 0.06330228 0.06135644 0.09337439 0.05692406
0.084192514 0.09436906 0.099718586 0.04824039 0.029713696 -0.028913533 -0.0009313212 -0.051623307
0.039275907 0.10309467 0.04457529 -0.0008297654 -0.0025821847 0.081488125 0.01951964 0.036984164
00000000: a8dd c0bc 7046 8b3c 3432 00bd 29ae 033d
00000010: b6a8 c73c a6dc f63c 7535 e8bc 2a11 2bbc
00000020: 5cba 2f3c 08f0 8c3b 7533 eebc 8755 85bc
00000030: e62d 79bd 8316 cebc dafb b0bc 0b7c 0c3d
00000040: 382a f1bc 3cf9 58bc e8a2 b33c 48de a53c
00000050: 6001 0abb d8bc b03c 9024 8cbc 2b6f 0e3d
00000060: 4812 c03c a067 b33a 7c8b c63c 3811 943c
00000070: ca5f babc bc97 b23c 882b f5bb 4503 03bd
00000080: f34e 00bd 642d 98bc f1ca 32bd 12dc 77bd
00000090: c6b3 1fbc c590 97bd fb55 8bbd 39b3 e6bc
000000a0: 7b4e b9bd 1928 96bd 90a2 58bd e0a8 98bd
000000b0: c83e bcbd 0fbb 03be 3ac6 4ebd 1a0f 9fbd
000000c0: 08f8 01be 3a4f f8bd 3dcc 5dbc ae62 84bd
000000d0: 0c66 b3bc e054 78bc 62bf c43c c042 e43b
000000e0: c0a0 68bc aab0 e6bc b25b 5d3c ffa5 efbc
000000f0: 966d c5bd 79dc 70bc e563 a5bd fddc 51bd
00000100: d34b a5bd df4b 2dbe 607a 17be 805d 3abe
00000110: 8f37 eabd 6757 0cbe 0e49 1ebe 2bbe d3bd
00000120: a4b2 33bc a905 53bd bde6 f7bd 9a63 6bbd
00000130: 783c 75bd c4ec dfbd 2271 b7bd e084 6bbd
00000140: 360d 98bd ac2c 05bd 2056 8ebc d866 c9bc
00000150: 1af0 d2bc ea62 1ebc 3fc0 7a3d 37d0 17bd
00000160: 4487 863c e054 853c d697 8fbd a3dd acbd
00000170: 2cb3 1abd c691 acbd a49a 63bc 0f93 343c
00000180: 8145 b73c f2a3 403c 9df8 7d3c 4e1a 963d
00000190: 4476 0d3d 7ada 68ba 38c8 01bd ba75 9dbd
000001a0: 10c9 6ebd c211 ddbd 8665 a2bd 7799 27bd
000001b0: e20c 2ebd e0bc 49bd 78db babc 5248 a93c
000001c0: 00c8 5bb9 bb01 673d 43d1 b83d 9aa0 043e
000001d0: 5ed7 563c 2a13 5fbc 324d e6bc 87bc 02bd
000001e0: 89c3 b8bd c6e3 11bd 54a9 fdbc f272 cc3c
000001f0: 56c2 763d 43d3 c23c bb2f 3b3d 3b09 f43c
00000200: 9f1e 183d a672 5f3b 6246 91bb ca7c 5ebd
00000210: 174c f5bd 00b6 4bbd 3c3e b3bc 9471 4ebd
00000220: e14e b73d f2fa 193d 6477 0cbd f4a5 64bc
00000230: 6065 e43b 58e6 473c 416b 6d3d 251a 2b3d
00000240: abc6 9dbc d274 9a3c c669 5c3d be25 2ebd
00000250: bbdf 27bd 0439 f4bc e4c9 41bc d51f 1d3c
00000260: 0a39 54bc 8212 6cbc 4bd4 dcbc 55f4 a3bb
00000270: 03c4 b3bc d732 3bbd 41b4 1cbd b41b c2bd
00000280: 89ec c4bd 7e3d 25be 0a5f efbd b839 c6bd
00000290: 3ec0 403c 78fd 5cbb ea3e 753b dd4e ce3c
000002a0: da7f 10bd 140e 95bb 5ca7 d23d 61c1 693d
000002b0: 1be7 6a3c 761a cc3c 24f1 bbbc b5fd ae3b
000002c0: f464 583c 0066 053d 8835 883c c932 7f3d
000002d0: 2b1e 1d3c 65b0 833d abac 333d b2bc 88bc
000002e0: c5d2 8b3d 5022 843c 1e7c 5d3d 5660 43bd
000002f0: 1cef 8dbc 73f9 3cbd 2c79 a3bd 0376 03be
00000300: 3225 86bd 1317 8bbd 8754 313c 8ab4 053c
00000310: ab4c 12bb b860 bd3c d05f 2e3d 0012 683d
00000320: cd89 66bc f27f 803a 8cbb 1dbc 4257 42bb
00000330: c938 85bc b598 b93c f033 663d 66e0 a53d
00000340: 4fdf 863d 3062 ef3c ccb9 623d d4c4 933d
00000350: 4c44 d93d 17c6 813d a930 f53c 90f9 153d
00000360: 35ee 223d 609c 6abd a217 eabd 3a5e b8bd
00000370: 15c8 39bd 8c17 423c f466 733d 9ad1 633d
00000380: 28ac 75bd 1933 323c 1eb9 6e3c df54 a9bb
00000390: 62ac 1a3d 7bf1 08bd 57fa 003d 7487 8abb
000003a0: b827 b13b ce2f 8b3d e1fd 703d 19a5 073d
000003b0: a0a4 813d e450 7b3d 123b bf3d 3429 693d
000003c0: 206d ac3d 9144 c13d 4239 cc3d b797 453d
000003d0: 236a f33c 13dc ecbc e823 74ba f672 53bd
000003e0: c6df 203d 4c23 d33d 9494 363d 9d84 59ba
000003f0: df39 29bb 3fe3 a63d a7e7 9f3c b57c 173d

fc1.bias f4 [128]
0.06420539 -0.058661122 0.14354533 0.0067219487 0.038078208 0.16045126 0.081652924 0.050857265
0.08476586 0.07404292 0.09928838 0.03985212 0.094984375 0.009056395 0.025659073 -0.08122717
0.024109418 0.04978598 -0.012895531 0.0017330316 -0.02450913 -0.13908215 0.06354868 0.051874854
0.08953113 0.07769669 0.08159976 -0.05049622 0.028956685 0.0888377 0.00069248164 0.05715243
0.063916884 -0.0021003648 0.12432323 -0.11597524 -0.058139414 0.0058899294 0.06273785 0.003370426
0.06399334 0.026953677 0.0801712 0.06584481 0.096564546 0.108057395 -0.07031079 0.14116924
0.033946853 0.029456284 -0.0119535625 0.003349887 0.009161963 0.020174393 0.021870097 0.065490626
0.0040303473 0.0039310735 -0.015336787 -0.016528115 0.018159488 0.0025729726 0.09754665 0.060434952
0.015089153 0.119511634 0.05182293 0.14314125 -0.0036385695 0.06666063 0.08085019 -0.07648691
-0.005761655 0.029543826 0.02102878 -0.0449711 -0.057609733 0.05118945 -0.035693932 0.09025313
-0.032432638 0.12601615 -0.05161188 0.049370714 0.042631652 0.12939025 0.048278075 0.037534185
0.031297855 0.10535466 0.025147032 0.01894332 0.06467697 -0.0020793488 -0.055739798 0.02219495
0.010740291 0.040366475 0.13123892 0.038334023 0.12861644 -0.025998304 0.07441881 0.018388728
0.061148714 0.013719594 0.05744702 -0.012280731 0.07129692 0.06689947 0.06631673 -0.069661625
-0.012273844 0.118937515 0.09678784 -0.031953644 -0.044824008 0.018841587 0.05246537 0.061808225
0.023216879 0.06518538 -0.029081725 -0.033864547 0.0020136132 -0.0033415402 -0.0041731796 0.08700965
00000000: 1e7e 833d a546 70bd 8cfd 123e cb43 dc3b
00000010: e5f7 1b3d 564d 243e a639 a73d b54f 503d
00000020: b999 ad3d d0a3 973d b557 cb3d fa3b 233d
00000030: 2b87 c23d 4661 143c fa32 d23c 6e5a a6bd
00000040: 1d81 c53c 62ec 4b3d c747 53bc e426 e33a
00000050: 5fc7 c8bc 8d6b 0ebe cf25 823d ba7a 543d
00000060: 195c b73d 711f 9f3d c61d a73d 20d5 4ebd
00000070: 9236 ed3c 8af0 b53d a887 353a ab18 6a3d
00000080: dbe6 823d 46a6 09bb 2d9d fe3d 6d84 edbd
00000090: 9823 6ebd 4f00 c13b b47c 803d 5de2 5c3b
000000a0: f10e 833d f5cd dc3c cc30 a43d a5d9 863d
000000b0: a2c3 c53d 324d dd3d 1aff 8fbd ab8e 103e
000000c0: db0b 0b3d 4e4e f13c e0d8 43bc c789 5b3b
000000d0: 0f1c 163c c544 a53c eb28 b33c f31f 863d
000000e0: 0111 843b 3cd0 803b 2647 7bbc f865 87bc
000000f0: 35c3 943c 519f 283b 8ac6 c73d a48a 773d
00000100: 7f38 773c 84c2 f43d 4844 543d 9f93 123e
00000110: 1175 6ebb 5e85 883d c994 a53d 2ba5 9cbd
00000120: 44cc bcbb e505 f23c 8c44 ac3c 9e33 38bd
00000130: 2ff8 6bbd 07ac 513d cd33 12bd a2d6 b83d
00000140: 16d8 04bd 610a 013e fb66 53bd f238 4a3d
00000150: 879e 2e3d e17e 043e 3bbf 453d 72bd 193d
00000160: 2e32 003d 2fc4 d73d 2601 ce3c 052f 9b3c
00000170: 5c75 843d af45 08bb 6a4f 64bd 2fd2 b53c
00000180: 0cf8 2f3c 5157 253d 7f63 063e 2304 1d3d
00000190: 07b4 033e 65fa d4bc e468 983d f5a3 963c
000001a0: 1377 7a3d 26c8 603c 914d 6b3d 1f35 49bc
000001b0: 1f04 923d 9702 893d 11d1 873d c1aa 8ebd
000001c0: 3c18 49bc 8395 f33d b438 c63d d3e1 02bd
000001d0: 6199 37bd ac59 9a3c eee5 563d 9f2a 7d3d
000001e0: 5331 be3c ea7f 853d cc3c eebc 8db5 0abd
000001f0: d3f6 033b befd 5abb 2bbf 88bb 1e32 b23d

fc2.weight f4 [64, 128]
0.06655205 0.011897833 0.08731913 0.020800369 0.10517261 -0.13063689 0.30820537 0.12891352
-0.18210198 -0.012680775 -0.105147496 -0.093919605 0.0740244 0.083000936 -0.13241154 -0.019379212
0.03717463 0.13787358 -0.072479054 0.034276776 -0.0040738205 -0.025526935 -0.17115813 0.13097988
0.12574589 -0.08846513 0.014875585 0.06547675 -0.041750934 -0.096888244 0.16135944 0.037432414
0.071560554 0.14700921 0.09398498 0.14170668 -0.0963718 -0.026622038 -0.26331654 0.105607405
0.17539771 0.13854234 -0.1216278 0.0207613 0.121334955 0.17152733 -0.10089319 0.10494057
0.22328387 0.14075984 0.08861791 0.024597595 0.016213523 -0.015016142 0.056518976 -0.12752166
-0.054190632 -0.035712868 -0.119505465 0.059287027 0.09300437 -0.122419894 0.19500892 -0.047267005
-0.073972255 -0.039921273 0.25509796 0.17224094 0.016592883 0.16681837 -0.07532003 -0.07520703
-0.08849758 -0.07699668 -0.004771813 -0.03699084 0.0050676023 -0.09150026 -0.1654772 0.30281368
-0.045329582 0.15529524 0.049373828 -0.02185798 -0.032453686 0.041507933 0.03181619 0.10549423
-0.008890412 -0.01180525 -0.05945254 -0.02473247 0.07301553 0.20015821 -0.03609496 0.20838185
-0.013441294 0.01315071 -0.003486232 -0.11797424 -0.07451193 0.023047762 0.016568085 0.12241742
-0.024702933 0.06831716 0.034935486 0.033852685 0.12895408 -0.14401622 0.153097 -0.1400851
-0.06099223 0.1646773 0.18331869 -0.14144717 -0.035962816 0.027770452 0.06706969 0.19733544
0.06230288 -0.071638435 0.13007523 -0.012113969 0.11366896 0.07986373 -0.0019645274 0.18125437
0.018117156 0.041578542 0.10175628 0.117022865 0.10655137 -0.011236603 -0.009581898 0.13139312
0.021637468 -0.103854455 0.027306946 0.01032819 0.09589478 -0.06984097 0.060426626 -0.054500073
-0.043922093 0.07237896 0.015442596 0.14541781 0.11186207 -0.12240356 0.14839984 0.13864924
0.02626706 -0.038670093 -0.17767493 0.12728283 0.09906652 -0.07089582 -0.10427557 -0.046294104
0.12440948 -0.17870833 0.04597444 -0.13825652 -0.0019223363 0.07963908 0.2466558 -0.03858551
0.09773605 0.16605744 0.08972597 -0.09640654 0.008960607 0.027560806 -0.02208664 0.21710747
0.06879105 0.14909516 0.11439416 0.06894606 0.053928126 0.14952694 0.032301612 0.015669316
0.090603784 0.033175975 0.020887177 0.07533274 -0.05507834 0.023216352 0.056546748 0.03818644
0.13273628 -0.03306808 -0.22248198 0.19679557 -0.07837073 -0.12986334 -0.10567567 -0.055163354
0.08012719 0.15649147 -0.0685382 0.021738106 0.031488713 0.24189788 0.1213949 -0.19482498
-0.016021807 0.21493818 0.13573255 -0.01482023 0.15028219 0.19431478 0.08212407 0.05292124
0.19780602 0.030937273 0.15162499 -0.07000692 -0.03555029 -0.063385114 0.06800957 -0.09595587
0.120792076 0.08301353 0.17248401 0.059215263 -0.11378932 -0.015189062 0.06901288 0.039313715
0.14733253 0.045469787 0.15156418 0.05275808 0.02506249 0.38140306 0.006878064 -0.04067607
-0.046085667 -0.020278368 -0.18349881 0.16382834 -0.1663659 0.007902199 -0.035478555 -0.103284396
0.009599508 0.38919497 -0.11775127 -0.11073928 -0.11784856 -0.058674425 0.040090516 -0.052263875
00000000: 714c 883d 21ef 423c 5fd4 b23d 8965 aa3c
00000010: bd64 d73d adc5 05be 18cd 9d3e e801 043e
00000020: f178 3abe 06c3 4fbc 9257 d7bd ec58 c0bd
00000030: 1b9a 973d 65fc a93d e496 07be 27c1 9ebc
00000040: 6d44 183d bb2e 0d3e e66f 94bd ce65 0c3d
00000050: af7d 85bb dd1d d1bc 1444 2fbe 971f 063e
00000060: 88c3 003e 352d b5bd bab8 733c ad18 863d
00000070: 0703 2bbd 586d c6bd 693b 253e bb52 193d
00000080: 578e 923d 9589 163e 327b c03d 8e1b 113e
00000090: 945e c5bd 7616 dabc 6dd1 86be b248 d83d
000000a0: 759b 333e 0bde 0d3e ff17 f9bd 9a13 aa3c
000000b0: 767e f83d dca4 2f3e 17a1 cebd 15eb d63d
000000c0: 87a4 643e 5923 103e 4f7d b53d e580 c93c
000000d0: 39d2 843c 4406 76bc 7180 673d 0a95 02be
000000e0: fff6 5dbd a847 12bd 48bf f4bd f4d6 723d
000000f0: 1379 be3d 48b7 fabd 6bb0 473e 0c9b 41bd
00000100: c47e 97bd 7d84 23bd 339c 823e ee5f 303e
00000110: cced 873c 6fd2 2a3e 6341 9abd 2506 9abd
00000120: 383e b5bd 6fb0 9dbd de5c 9cbb b583 17bd
00000130: 210e a63b 7d64 bbbd db72 29be 650a 9b3e
00000140: 83ab 39bd b705 1f3e 363c 4a3d 820f b3bc
00000150: 28ee 04bd 3904 2a3d b151 023d 5c0d d83d
00000160: 17a9 11bc cf6a 41bc 8284 73bd c09b cabc
00000170: 2b89 953d 46f6 4c3e 4fd8 13bd 0d62 553e
00000180: e038 5cbc 1376 573c 4479 64bb 7a9c f1bd
00000190: b699 98bd a9ce bc3c cbb9 873c fcb5 fa3d
000001a0: ce5d cabc dee9 8b3d 8318 0f3d 1da9 0a3d
000001b0: 8a0c 043e fd78 13be 76c5 1c3e 7872 0fbe
000001c0: fdd2 79bd 2ba1 283e e5b7 3b3e 87d7 10be
000001d0: bf4d 13bd dc7e e33c d55b 893d 4d12 4a3e
000001e0: 4e31 7f3d 2cb7 92bd 7132 053e ab79 46bc
000001f0: 46cb e83d 988f a33d 4dbf 00bb bf9a 393e
00000200: 6e6a 943c 434e 2a3d 9965 d03d afa9 ef3d
00000210: 9b37 da3d bb19 38bc 65fd 1cbc eb8b 063e
00000220: 0f41 b13c a5b1 d4bd d1b2 df3c 9237 293c
00000230: 7b64 c43d c808 8fbd e981 773d 783b 5fbd
00000240: a7e7 33bd 6c3b 943d f102 7d3c 68e8 143e
00000250: f117 e53d b8ae fabd 21f6 173e 11fa 0d3e
00000260: 042e d73c 8864 1ebd 6bf0 35be 6e56 023e
00000270: 63e3 ca3d d431 91bd 6e8e d5bd e39e 3dbd
00000280: 66ca fe3d 51ff 36be b24f 3c3d 1e93 0dbe
00000290: e7f6 fbba d019 a33d 5793 7c3e d70b 1ebd
000002a0: d729 c83d f60a 2a3e 40c2 b73d cb70 c5bd
000002b0: 83cf 123c 33c7 e13c 0bef b4bc 6c51 5e3e
000002c0: 52e2 8c3d 67ac 183e 7c47 ea3d 9833 8d3d
000002d0: bde3 5c3d 971d 193e b24e 043d f05c 803c
000002e0: 7a8e b93d 88e3 073d 961b ab3c 0d48 9a3d
000002f0: d399 61bd 3830 be3c 909d 673d 6269 1c3d
00000300: 05ec 073e 6572 07bd 51d2 63be c784 493e
00000310: d580 a0bd e5fa 04be 7c6c d8bd f8f2 61bd
00000320: b919 a43d 4d3f 203e c15d 8cbd 1d14 b23c
00000330: 4ffa 003d 14b4 773e e49d f83d 3380 47be
00000340: 2a40 83bc c118 5c3e 79fd 0a3e 8dd0 72bc
00000350: 93e3 193e 74fa 463e aa30 a83d f1c3 583d
00000360: a98d 4a3e 2a70 fd3c 9543 1b3e ca5f 8fbd
00000370: 2e9d 11bd 0ed0 81bd 9a48 8b3d 8384 c4bd
00000380: d661 f73d ff02 aa3d a69f 303e b48b 723d
00000390: 600a e9bd 8bdb 78bc a056 8d3d 6b07 213d
000003a0: 57de 163e 873e 3a3d a433 1b3e db18 583d
000003b0: da4f cd3c 4347 c33e 6261 e13b f39b 26bd
000003c0: 53c4 3cbd d21e a6bc 1de7 3bbe 9ec2 273e
000003d0: d35b 2abe 3a78 013c f651 11bd c586 d3bd
000003e0: 4147 1d3c 9044 c73e 9427 f1bd 47cb e2bd
000003f0: 965a f1bd 9854 70bd f435 243d a512 56bd

fc2.bias f4 [64]
0.117834665 0.042676516 0.021185687 0.07745173 0.1547727 0.008817351 -0.023600774 -0.037103686
0.007222051 -0.05386239 0.11322426 0.009266311 0.14190483 0.12619373 0.021205071 0.07083093
0.10324337 0.0719744 0.0048703323 0.057976563 0.105711274 0.004386196 -0.003098527 -0.06733516
-0.05923273 -0.06623389 -0.06979227 0.0021758983 -0.035409376 0.030086434 -0.025494372 0.031454124
0.09855488 0.037554402 0.03993729 -0.065539286 0.0046768226 -0.08731074 0.0040927706 -0.0595886
0.024149634 0.047398075 -0.044688195 0.045964886 0.064720966 0.06449831 0.094593056 0.0687369
-0.034300126 0.11900758 -0.045501 0.046776544 -0.03139757 -0.016528696 0.07072569 0.15745087
0.006124919 -0.06678644 0.008717588 0.025342954 0.028503492 0.04161319 0.06771342 0.0059529007
00000000: 4d53 f13d 92cd 2e3d 9b8d ad3c 039f 9e3d
00000010: bc7c 1e3e a776 103c 6956 c1bc 09fa 17bd
00000020: f4a6 ec3b cf9e 5cbd 1fe2 e73d bad1 173c
00000030: 804f 113e ee38 013e 42b6 ad3c ce0f 913d
00000040: 4371 d33d 5067 933d 4f97 9f3b d578 6d3d
00000050: 277f d83d 14ba 8f3b a810 4bbb 04e7 89bd
00000060: 059e 72bd a2a5 87bd 40ef 8ebd 8499 0e3b
00000070: 6c09 11bd d377 f63c 93d9 d0bc 0ad6 003d
00000080: 24d7 c93d a5d2 193d 4995 233d 7639 86bd
00000090: 0840 993b f9cf b2bd a61c 863b 2d13 74bd
000000a0: 74d5 c53c 7c24 423d f80a 37bd ad45 3c3d
000000b0: 6d8c 843d b117 843d 01ba c13d efc5 8c3d
000000c0: 4a7e 0cbd 3fba f33d 425f 3abd c398 3f3d
000000d0: bd9a 00bd 3067 87bc a1d8 903d cd3a 213e
000000e0: 8bb3 c83b 54c7 88bd 37d4 0e3c 079c cf3c
000000f0: 2880 e93c 9872 2a3d 55ad 8a3d 8d10 c33b

fc3.weight f4 [10, 64]
0.021700745 0.053040124 -0.12100302 -0.20552449 -0.18773648 -0.14439613 0.0056609362 -0.08651401
0.073574804 0.103850365 0.054526024 0.06776811 -0.2814381 0.1805877 -0.086090654 -0.16111791
-0.17486937 -0.15176229 -0.21484248 -0.18051964 0.078126885 -0.014135434 -0.14969875 0.05478248
-0.1807842 0.09449446 0.06814256 -0.19839507 0.10401503 0.15312494 -0.12000792 0.16953316
0.13660927 -0.2431782 -0.11886381 0.089842476 0.082495846 0.034736596 -0.16255938 -0.14039062
-0.061840456 -0.21494515 0.15762186 -0.33747926 -0.118118554 -0.117367186 -0.2338836 0.08804437
-0.07010118 0.15068687 0.07572488 -0.03170067 -0.14544551 -0.12836964 -0.12500624 0.10874286
-0.045602243 0.19135444 0.108894564 0.0103209885 -0.013803595 -0.027487764 0.013875842 0.20331216
0.10808478 0.16107756 0.22667593 0.09750016 -0.30627224 -0.094123766 0.17972384 0.015329621
0.22438188 0.040827252 0.026846766 -0.14549327 0.19430776 -0.17814866 -0.2736548 -0.16402462
-0.1347493 0.067254126 0.03278107 0.052353535 -0.09080321 0.07094002 -0.21471688 -0.014229943
-0.13478899 -0.0241741 -0.03446284 0.1932311 -0.19626366 -0.250717 0.03866434 0.027918128
0.24600773 -0.16205586 -0.12865907 0.23235981 -0.039427664 0.030838914 -0.19958341 -0.10541886
-0.18787006 0.2532181 -0.23643214 0.024626346 -0.18030241 -0.04417181 0.18981579 -0.09411355
-0.10441691 -0.11732426 -0.1528867 -0.19524117 0.075881645 0.1091395 0.2198587 0.0043820757
-0.17589442 -0.13997103 -0.0344379 -0.028399462 -0.13247882 0.037613265 -0.17491725 -0.11714325
0.15316822 0.06479298 0.0077359136 0.16242981 0.06036338 -0.08029662 -0.051569108 -0.04199736
0.032106664 -0.07904491 -0.1572191 0.1804739 -0.23919255 0.0425083 -0.17966257 0.2219299
-0.25874376 0.0011509768 0.18087253 -0.16868997 0.1270103 -0.12933637 0.16195004 0.043329414
-0.0041865297 0.03016518 0.0018208137 0.21034084 -0.207993 0.13270344 -0.039746407 -0.07931409
-0.24293673 -0.11380564 0.041292474 -0.06002504 -0.18581663 -0.09361072 -0.17971182 0.09265475
-0.12888812 0.09368518 0.022446409 -0.1679327 -0.12019958 0.12714824 0.17262521 0.15576376
0.08044695 -0.0712066 -0.011933474 0.21770388 -0.024798295 0.15896985 0.11176125 0.1606343
-0.2101561 0.16024111 -0.27422827 -0.051285017 0.11797203 -0.18954147 -0.07834455 -0.10224417
0.05582522 -0.19564763 -0.1753724 -0.010596042 -0.15335095 -0.1089478 -0.13995245 -0.029963551
0.04555539 -0.09618784 0.11939505 -0.020116169 -0.12070323 -0.045488097 0.011480733 0.050724883
-0.181566 0.0858115 0.03643017 0.16614941 -0.19888777 0.18125613 -0.11511731 -0.029719092
0.034465525 0.09229448 -0.14840369 -0.08935154 -0.07193115 -0.006323402 -0.034622714 -0.0004627885
-0.26571614 0.21069187 -0.18744902 0.16489987 -0.023438787 -0.06704669 0.109817445 0.20991993
0.043075517 -0.15240335 -0.14576785 -0.14025392 -0.09404139 -0.23206559 0.1665299 -0.10792181
-0.060018763 -0.25653255 0.09249538 -0.02568283 -0.055395942 0.21943735 -0.12620875 -0.11809971
0.13750486 0.1454636 -0.072780326 0.22598256 0.09408994 0.116117276 -0.22608386 -0.20100398
00000000: c3c5 b13c 9a40 593d 6ed0 f7bd 0375 52be
00000010: fe3d 40be 94dc 13be 607f b93b 422e b1bd
00000020: 63ae 963d 80af d43d ae56 5f3d 02ca 8a3d
00000030: a818 90be fbeb 383e 4c50 b0bd 18fc 24be
00000040: f510 33be 9367 1bbe abff 5bbe 24da 38be
00000050: fd00 a03d 4f98 67bc a14a 19be 9863 603d
00000060: 7e1f 39be 5086 c13d 548e 8b3d 1428 4bbe
00000070: d505 d53d c9cc 1c3e b6c6 f5bd 1a9a 2d3e
00000080: 4de3 0b3e b503 79be df6e f3bd 55ff b73d
00000090: 95f3 a83d f647 0e3d f775 26be 8fc2 0fbe
000000a0: 6b4c 7dbd 951a 5cbe a067 213e 15ca acbe
000000b0: 24e8 f1bd 355e f0bd 2f7f 6fbe 9b50 b43d
000000c0: 3591 8fbd a94d 1a3e a515 9b3d 90d8 01bd
000000d0: abef 14be 5573 03be a301 00be 94b4 de3d
000000e0: 6bc9 3abd 6bf2 433e 1d04 df3d 5d19 293c
000000f0: 7928 62bc 052e e1bc 8057 633c 1031 503e
00000100: 8e5b dd3d 84f1 243e bc1d 683e 2aae c73d
00000110: b7cf 9cbe f6c3 c0bd 8709 383e 1729 7b3c
00000120: 5dc4 653e 7a3a 273d c0ed db3c 30fc 14be
00000130: 9df8 463e 9a6c 36be 7b1c 8cbe 12f6 27be
00000140: b8fb 09be 88bc 893d 7145 063d a970 563d
00000150: 09f7 b9bd 0049 913d bede 5bbe b524 69bc
00000160: 2006 0abe c308 c6bc e828 0dbd 60de 453e
00000170: 57f9 48be fb5d 80be 805e 1e3d 8fb4 e43c
00000180: 73e9 7b3e f9f1 25be 34bf 03be bbef 6d3e
00000190: e77e 21bd e4a1 fc3c 985f 4cbe d8e5 d7bd
000001a0: 0261 40be cea5 813e 441b 72be 31bd c93c
000001b0: 32a1 38be 80ed 34bd 125f 423e 9bbe c0bd
000001c0: 88d8 d5bd b447 f0bd 558e 1cbe 4ded 47be
000001d0: d667 9b3d 8884 df3d a422 613e 8497 8f3b
000001e0: ab1d 34be 9154 0fbe c10e 0dbd fda5 e8bc
000001f0: 87a8 07be 5e10 1a3d 821d 33be cde8 efbd
00000200: 21d8 1c3e 2fb2 843d 8c7d fd3b 0054 263e
00000210: 973f 773d 8e72 a4bd 213a 53bd 6c05 2cbd
00000220: 4782 033d 4ce2 a1bd 0bfe 20be 26ce 383e
00000230: e4ee 74be 2f1d 2e3d 77f9 37be 9741 633e
00000240: 107a 84be 5fdc 963a a636 393e 10bd 2cbe
00000250: fd0e 023e c170 04be 3bd6 253e 2f7a 313d
00000260: 282f 89bb f81c f73c 5fa8 ee3a 9763 573e
00000270: 1efc 54be 69e3 073e 21cd 22bd 6d6f a2bd
00000280: 68c4 78be ee12 e9bd 4c22 293d d1dc 75bd
00000290: b746 3ebe fab6 bfbd 6006 38be c6c1 bd3d
000002a0: 3ffb 03be 04de bf3d 88e1 b73c 8df6 2bbe
000002b0: 332b f6bd 2633 023e aac4 303e 8980 1f3e
000002c0: 5fc1 a43d c4d4 91bd 9e84 43bc c4ed 5e3e
000002d0: cb25 cbbc fec8 223e 15e3 e43d 517d 243e
000002e0: 2933 57be 3f16 243e a667 8cbe 3d10 52bd
000002f0: 529b f13d 2917 42be 1c73 a0bd 6465 d1bd
00000300: fca8 643d da57 48be d394 33be 059b 2dbc
00000310: 0808 1dbe 0620 dfbd b24f 0fbe 1f76 f5bc
00000320: 4a98 3a3d 21fe c4bd 6485 f43d aaca a4bc
00000330: 4133 f7bd ba51 3abd af19 3c3c e5c4 4f3d
00000340: 70ec 39be f1bd af3d cd37 153d 1223 2a3e
00000350: 3ca9 4bbe 359b 393e a0c2 ebbd 7475 f3bc
00000360: b92b 0d3d e304 bd3d 23f7 17be f1fd b6bd
00000370: a450 93bd 8a34 cfbb 8cd0 0dbd 6ca2 f2b9
00000380: f20b 88be 9cbf 573e a3f2 3fbe 83db 283e
00000390: b302 c0bc c64f 89bd f8e7 e03d 40f5 563e
000003a0: f46f 303d a00f 1cbe 2b44 15be b99e 0fbe
000003b0: c698 c0bd 9aa2 6dbe d086 2a3e 1c06 ddbd
000003c0: 3cd6 75bd 3c58 83be 386e bd3d cc64 d2bc
000003d0: dbe6 62bd 2fb4 603e de3c 01be 43de f1bd
000003e0: 13ce 0c3e 69f4 143e da0d 95bd f967 673e
000003f0: 3ab2 c03d e5ce ed3d 8782 67be fdd3 4dbe

fc3.bias f4 [10]
-0.014807861 0.10518433 0.1098459 -0.017597716 0.115670085 0.06618934 0.03255266 -0.073393196
0.06576074 0.0023306548
00000000: ac9c 72bc e26a d73d e3f6 e03d 1629 90bc
00000010: 70e4 ec3d 478e 873d f055 053d 2c4f 96bd
00000020: 91ad 863d e6bd 183b
